empirical/experiments/study_c_computational/trained_agents/self_model_agent.pt (torch, 246175 bytes, 32 tensors)

actor_logstd f4 [5]
0	0xbe248e26	-0.1606985
1	0xbe273410	-0.16328454
2	0x3d3627c3	0.044471513
3	0x3bc06ceb	0.005872359
4	0xbbb7a5e2	-0.0056044916

world_encoder.0.weight f4 [128, 12]
0	0x3e802c63	0.25033864
1	0x3ef28497	0.47366783
2	0xbe29711d	-0.16547056
3	0x3ea79f2f	0.32738635
4	0xbd33949b	-0.043842893
5	0x3d6de64a	0.05808095
6	0xbe023a06	-0.12717447
7	0x3e11d5b4	0.14241678
8	0x3e96d42d	0.29458752
9	0xbe4125fb	-0.18862145
10	0x3e4b4cc0	0.19853497
11	0x3d9ea065	0.077454366
12	0x3e9325d8	0.2873981
13	0xbe143356	-0.14472708
14	0x3e8cad4d	0.27475968
15	0xbc1035ee	-0.00880192
16	0x3e623303	0.22089772
17	0x3d5169f2	0.051126428
18	0xbdfb4684	-0.12269309
19	0x3d72d584	0.059285656
20	0xbdae7557	-0.085184745
21	0x3d4e02e4	0.050295725
22	0xbdf32406	-0.11872105
23	0x3e2eff29	0.17089523
24	0xbe227dd9	-0.1586832
25	0xbe6245c7	-0.2209693
26	0x3cb7e85e	0.022449668
27	0xbdc6a2fb	-0.09699055
28	0x3d671d94	0.056424692
29	0xbea1c9f4	-0.3159939
30	0x3e8f63b4	0.28005755
31	0xbe8f6f8b	-0.28014788
32	0x3eaa71fb	0.33290085
33	0x3e03f416	0.1288608
34	0xbdaede87	-0.085385375
35	0x3e9b6c34	0.3035599
36	0x3decd0dc	0.11563274
37	0x3eebcc07	0.46054098
38	0xbd8d9933	-0.06913986
39	0x3c090c22	0.008364709
40	0x3d70040e	0.058597617
41	0xbd3ce88b	-0.046120208
42	0x3dbd3f80	0.09240627
43	0x3e549eeb	0.20763747
44	0x3e62c372	0.22144869
45	0xbd7d365e	-0.061819427
46	0x3e1f236e	0.15540859
47	0x3dc95e8a	0.09832485
48	0x3e1e32ad	0.15449019
49	0xbe9c4d3a	-0.3052767
50	0xbe61b770	-0.22042632
51	0xbe114c1b	-0.14189188
52	0xbe4e0595	-0.20119317
53	0x3e79a4d0	0.24379277
54	0x3d336b3b	0.043803435
55	0x3ddcf811	0.107895024
56	0x3dd257f2	0.102706805
57	0x3c09893b	0.008394535
58	0x3e902e76	0.28160447
59	0xbe7c3945	-0.24631222
60	0x3dd9dad0	0.10637438
61	0xbea2c90f	-0.3179402
62	0x3e4c8fa3	0.19976668
63	0xbd14f8dc	-0.036370143
64	0x3dda7e8f	0.106686704
65	0xbd814b12	-0.06313147
66	0x3e89755b	0.26847348
67	0xbe44b9a2	-0.19211438
68	0xbd6de4f1	-0.058079664
69	0xbd950657	-0.072766
70	0x3e85a778	0.2610433
71	0x3df1fbbe	0.11815594
72	0x3eb5fc64	0.3554412
73	0xbebee9d1	-0.37287763
74	0xbe24c7d5	-0.16091855
75	0xbe62920f	-0.2212603
76	0xbe2abb19	-0.16672935
77	0x3df5ba6f	0.1199845
78	0x3d5a6fd2	0.053329296
79	0x3e8afc0a	0.27145416
80	0xbda876ef	-0.0822581
81	0xbdebe6f9	-0.11518664
82	0x3e469e5c	0.19396347
83	0xbe51d6bf	-0.20492075
84	0x3ea2f245	0.31825462
85	0x3dab31cc	0.083591074
86	0x3e4e2b12	0.20133618
87	0xbd326323	-0.043551575
88	0xbe045aeb	-0.12925307
89	0x3de8e2e0	0.11371398
90	0x3ddc9190	0.10769951
91	0xbde1c764	-0.11024359
92	0x3ebc9bbc	0.36837566
93	0x3eb420f1	0.35181382
94	0xbe69b8d2	-0.2282441
95	0xbddb5f8e	-0.10711585
96	0x3ebecf9d	0.3726777
97	0xbc9de136	-0.019272428
98	0xbd8a731e	-0.06760238
99	0xbdeb13b4	-0.114783674
100	0xbe244691	-0.16042544
101	0x3dbe1714	0.092817456
102	0x3ca04a6b	0.019566735
103	0xbe7e9a20	-0.24863482
104	0x3e3b7fc1	0.18310453
105	0xbd94b77b	-0.072615586
106	0xbe83f5a3	-0.25773343
107	0xbdbfc9c1	-0.093646534
108	0xbe069068	-0.13141024
109	0xbe9bb602	-0.30412298
110	0x3ee1845e	0.440463
111	0x3e183cb2	0.14866903
112	0x3dccf9da	0.10008593
113	0xbe8dbc1d	-0.27682582
114	0xbe2664c6	-0.1624938
115	0xbdd5e3b3	-0.10443821
116	0x3e297844	0.16549784
117	0xbdf8ec03	-0.12154391
118	0xbdcf8e6a	-0.10134585
119	0xbe1c4c4a	-0.15263477
120	0x3d86c2e4	0.06580141
121	0xbe99b7bb	-0.30022988
122	0x3e025d45	0.12730892
123	0xbe34382b	-0.17599551
124	0xbe2a62dd	-0.16639276
125	0xbe193765	-0.14962538
126	0xbda8ef7e	-0.082488045
127	0xbe7a938e	-0.2447035
128	0x3e99b73f	0.30022618
129	0x3c8862cd	0.016648674
130	0x3e9eb8a4	0.31000245
131	0x3de67499	0.11252708
132	0xbe3d9437	-0.1851357
133	0x3ec4e247	0.38453886
134	0xbdf1900f	-0.11795055
135	0xbc698fe2	-0.014255496
136	0xbe6b95c9	-0.23006357
137	0xbe8b710b	-0.27234682
138	0x3dd09a61	0.101856954
139	0xbd90a7ae	-0.07063232
140	0x3e371228	0.1787802
141	0xbe343c22	-0.17601064
142	0x3e0f3d3f	0.13988207
143	0xbe821fce	-0.2541489
144	0xbc3eca45	-0.0116449045
145	0xbd8214ca	-0.063516214
146	0x3e66bced	0.22533007
147	0x3e7c90c8	0.24664605
148	0x3ea3cfc5	0.31994453
149	0xbe64dfba	-0.2235097
150	0x3df4bd98	0.11950225
151	0xbe0c0206	-0.13672647
152	0xbad40230	-0.0016174968
153	0xbe301fc9	-0.17199625
154	0x3e6fda97	0.23423229
155	0xbe39eb85	-0.1815625
156	0x3e7d00fa	0.24707404
157	0x3ea4bdd4	0.32176077
158	0x3c84ed17	0.016226334
159	0xbd49682e	-0.04917162
160	0x3e8438da	0.25824624
161	0x3dbcbde0	0.09215903
162	0x3c799c44	0.015235011
163	0xbe52d5f6	-0.20589432
164	0x3e56536f	0.20930265
165	0x3d36e405	0.04465105
166	0xbe172d08	-0.14763272
167	0x3e49953b	0.19685833
168	0x3e119328	0.14216292
169	0xbe72e7b3	-0.23721199
170	0xbd7d89bb	-0.061898928
171	0x3d47fdf4	0.048826173
172	0x3e54fa1d	0.20798536
173	0xbd588291	-0.052858893
174	0xbe23e05f	-0.1600356
175	0xbdaa0e59	-0.08303518
176	0xbdeb7765	-0.11497382
177	0x3e3f642b	0.18690555
178	0x3e83edf3	0.25767478
179	0xbe9db498	-0.30801845
180	0x3e31295a	0.1730093
181	0x3eb5f346	0.35537165
182	0x3dc8886f	0.09791648
183	0xba1e699c	-0.00060429587
184	0x3e153602	0.14571384
185	0x3e35d7bc	0.17758077
186	0x3dafae84	0.08578208
187	0xbd1ffa75	-0.039057214
188	0xbbfcddaf	-0.0077168564
189	0x3e0ad0d8	0.1355623
190	0xbd733d34	-0.05938454
191	0xbe0197ac	-0.12655514
192	0x3e7dd69c	0.24788898
193	0x3f02d8a9	0.5111185
194	0xbe01d2a6	-0.12678012
195	0x3c73bfda	0.014877284
196	0x3b40c829	0.002941618
197	0x3c86a251	0.01643482
198	0x3d6969cb	0.056985658
199	0x3da7f242	0.08200504
200	0xbe3c8bec	-0.18412751
201	0xbd51e114	-0.05124004
202	0x3e49c525	0.19704111
203	0x3dba0266	0.09082489
204	0x3cb163fc	0.021654122
205	0xbe3f2759	-0.18667354
206	0xbe0bd8df	-0.13656949
207	0xbe80288a	-0.2503093
208	0xbd5e93a6	-0.054340027
209	0x3dd71810	0.105026364
210	0x3e814245	0.25245872
211	0x3dc894d1	0.097940095
212	0xbe5599ea	-0.20859495
213	0xbe0dfc9d	-0.13865896
214	0xbdd171f2	-0.102268115
215	0x3e8abcf9	0.270973
216	0x3db6492d	0.08900676
217	0xbe867571	-0.26261476
218	0x3e797f02	0.24364856
219	0xbdda9656	-0.106732056
220	0xbe25a35a	-0.16175595
221	0x3e39abea	0.18131986
222	0xbe0f5419	-0.13996924
223	0xbd61de21	-0.05514348
224	0xbe805039	-0.25061205
225	0x3e7f43cc	0.24928206
226	0x3e8c0be1	0.27352813
227	0x3d93e0f5	0.072206415
228	0xbde79123	-0.113069795
229	0xbeb6775d	-0.35637942
230	0xbda30a7f	-0.07960986
231	0x3e8e20c5	0.27759376
232	0x3e604ae0	0.21903563
233	0x3e93be69	0.2885621
234	0x3e15d912	0.14633587
235	0x3dc38f92	0.09548868
236	0x3dc61a7c	0.0967302
237	0xbdef730b	-0.116918646
238	0xbe9adc5b	-0.30246243
239	0xbe9faf51	-0.31188443
240	0x3e619271	0.22028519
241	0xbe909157	-0.28235886
242	0x3d881e94	0.06646457
243	0xbe051961	-0.12997963
244	0xbd286093	-0.041107725
245	0xbe2263af	-0.15858339
246	0xbe41f232	-0.18940046
247	0x3e0b2709	0.1358911
248	0x3c4527b2	0.01203339
249	0x3e91ef0f	0.285027
250	0xbd6e8d2a	-0.058240093
251	0xbe8a13e2	-0.26968294
252	0x3ca461a1	0.020066084
253	0xbe30a636	-0.17250904
254	0xbb8af44a	-0.0042405473
255	0xbe766013	-0.24060087

world_encoder.0.bias f4 [128]
0	0x3d85a8d3	0.06526341
1	0xbb9282dc	-0.004471166
2	0xbd8bb298	-0.068211734
3	0xbce8fc3b	-0.028440585
4	0xbdb7510e	-0.08951007
5	0x3ec04a7b	0.37556824
6	0x3e44f358	0.19233453
7	0x3ee11b0f	0.43965957
8	0x3e509de2	0.20372728
9	0x3e4a94eb	0.1978337
10	0x3e453c64	0.19261318
11	0x3de22efb	0.11044117
12	0xbe3ad943	-0.18246941
13	0xbda97810	-0.08274853
14	0x3c65a230	0.014015719
15	0x3ddf45ce	0.10901986
16	0x3e27fa1a	0.16404
17	0x3e1599b9	0.14609422
18	0x3e91f74f	0.28508994
19	0x3e2542d1	0.1613877
20	0x3c07dfc2	0.008293094
21	0xbe1481ea	-0.14502683
22	0xbe287b6a	-0.16453329
23	0xbe42a2c1	-0.19007398
24	0x3e148354	0.14503223
25	0x3e63af73	0.22234897
26	0x3eaf3ac9	0.34224537
27	0xbdbb016f	-0.09131133
28	0x3c6a4f5e	0.014301149
29	0xbccdcfd1	-0.025123509
30	0x3b6ccfb8	0.0036134552
31	0x3e3509bc	0.17679495
32	0x3d066f31	0.032820884
33	0x3d805873	0.0626687
34	0x3d314320	0.043276906
35	0x3e22b172	0.15888003
36	0x3ca28b17	0.019841714
37	0xbe259862	-0.1617141
38	0x3e148ce8	0.14506876
39	0x3cfd7814	0.030941047
40	0xbdc4e4f0	-0.09613979
41	0x3e3ae635	0.1825188
42	0x3d3dd7b3	0.046348285
43	0x3d2825a0	0.041051507
44	0xbdcd3622	-0.10020091
45	0x3bc1ff54	0.00592033
46	0xbe5ad7e0	-0.21371412
47	0x3e041459	0.12898387
48	0x3da6db5c	0.08147308
49	0x3e63e468	0.22255099
50	0x3d820922	0.06349398
51	0x3d80b202	0.06283952
52	0x3e1c74c5	0.15278919
53	0x3e98869c	0.297902
54	0xbd511da5	-0.05105366
55	0x3e833a74	0.25630534
56	0x3db8a108	0.09015089
57	0xbdc146c6	-0.09437327
58	0x3e195aa2	0.1497598
59	0xbe27ffc4	-0.1640616
60	0xbe018742	-0.12649253
61	0xbda52a19	-0.0806467
62	0xbe4157e9	-0.18881191
63	0x3e81aa04	0.25325024
64	0xbe6809ef	-0.2266004
65	0x3e49aae7	0.196941
66	0xbdeaccfd	-0.1146488
67	0x3db50326	0.08838491
68	0x3ddffb72	0.10936631
69	0x3e9a22be	0.3010463
70	0xb9ecf8e6	-0.00045198872
71	0x3e15ee17	0.14641605
72	0x3dfd19af	0.123584144
73	0x3e81af89	0.25329235
74	0x3d6e20f9	0.058136914
75	0x3e279be2	0.16368058
76	0xbd7a2ed4	-0.061079815
77	0xbe34bd3e	-0.17650315
78	0x3ea78da0	0.3272524
79	0xbe47f889	-0.19528402
80	0x3cbafacb	0.022824666
81	0x3d86e6a5	0.06586961
82	0x3e859bfd	0.26095572
83	0x3cd331aa	0.025780518
84	0xbe65f514	-0.22456771
85	0xbd95dec8	-0.07317883
86	0x3e8bac53	0.2727991
87	0x3e72e578	0.23720348
88	0x3eaed595	0.34147325
89	0x3c3281b2	0.01089518
90	0x3e17df2b	0.14831226
91	0xbe85a49f	-0.26102158
92	0x3e44fe45	0.19237621
93	0x3e2ca504	0.16859823
94	0x3e331d1a	0.1749157
95	0xbdbbcddf	-0.09170126
96	0xbbae9088	-0.005327288
97	0x3e2c0897	0.16800152
98	0xbdf51962	-0.11967732
99	0xbe5d4bd1	-0.21610953
100	0xbe435e03	-0.19078831
101	0x3d4dce62	0.05024565
102	0x3e566beb	0.20939605
103	0x3e607ed1	0.21923377
104	0x3dc37900	0.09544563
105	0x3e2c9e2f	0.16857217
106	0xbe47ffbf	-0.19531153
107	0x3dac4265	0.08411101
108	0x3cdce3c0	0.026964068
109	0xbce05761	-0.027385416
110	0x3e98a95a	0.29816705
111	0xbe1107b5	-0.14163096
112	0x3de642f5	0.1124324
113	0xbe867ec9	-0.26268604
114	0x3d22cbc4	0.039745107
115	0x3bf2836f	0.007400922
116	0x3e38640e	0.18006918
117	0xbe25fe14	-0.16210204
118	0x3e6ff7ee	0.23434421
119	0xbe1de6f9	-0.1542014
120	0x3e5e57e1	0.2171321
121	0xbe4c1368	-0.19929278
122	0x3e67226b	0.22571723
123	0xbdaa92a8	-0.08328754
124	0xbb549e86	-0.003244312
125	0x3c603203	0.013683799
126	0x3e522e93	0.20525579
127	0x3e5247f8	0.20535266

world_encoder.2.weight f4 [64, 128]
0	0xbdd3a9c6	-0.10335116
1	0x3cfc7e90	0.030822068
2	0xbb8466a6	-0.004040557
3	0x3cdee2c8	0.027207747
4	0x3d1f31a5	0.038865704
5	0x3d550562	0.052007087
6	0xbd22550a	-0.03963188
7	0x3d475338	0.048663348
8	0xbd07cbbc	-0.03315328
9	0x3dafb8d0	0.08580172
10	0x3db4479e	0.088027224
11	0x3c5bf66c	0.013425451
12	0x3d28e4e4	0.041233912
13	0xbd608804	-0.054817215
14	0x3da5c6b0	0.08094537
15	0xbd04a0f0	-0.032380044
16	0xbdd9b5ac	-0.10630354
17	0xbd3b7839	-0.04576895
18	0x3d97fd9a	0.074214175
19	0x3e1ac1e7	0.1511303
20	0x3cbb4925	0.022862026
21	0x3db652ce	0.089025125
22	0xbdded5d1	-0.10880626
23	0x3ac95069	0.0015359047
24	0xbda30cda	-0.079614356
25	0x3d1903be	0.037357084
26	0xbd1b8b37	-0.037974562
27	0xbd010843	-0.03150202
28	0x3d27d08c	0.04097037
29	0x3dce2dbd	0.10067318
30	0xbcf3f286	-0.02977873
31	0x3d1ea1bf	0.03872847
32	0xbcad81fa	-0.021180142
33	0x3d9b23dd	0.075752
34	0x3c1c9d39	0.009558969
35	0x3bc98d16	0.006150852
36	0xbe041947	-0.12900268
37	0x3d4868bf	0.04892802
38	0x3d5a9186	0.05336144
39	0xbd85c59f	-0.06531834
40	0x3d62cde2	0.055372126
41	0x3da3422b	0.07971605
42	0x3d04db71	0.032435838
43	0x3d9b7870	0.07591331
44	0xbd174055	-0.036926586
45	0x3dca33c8	0.09873158
46	0x3d77238d	0.06033664
47	0x3dd0bc81	0.10192204
48	0xbd5ce40a	-0.053928412
49	0x3d2bd5e0	0.041952014
50	0x3d0d9dae	0.034574203
51	0xbdee4202	-0.11633684
52	0x3d61f122	0.055161603
53	0xbc69c0e5	-0.014267181
54	0x3defe807	0.117141776
55	0xbd6f290f	-0.058388766
56	0xbc1bcca7	-0.009509242
57	0xbc3fa5cf	-0.011697247
58	0xbdd0a3b5	-0.10187475
59	0xbda9a0d3	-0.08282628
60	0xbd63387e	-0.055473797
61	0x3cf52618	0.029925391
62	0x3d638875	0.055550057
63	0xbdbe690a	-0.09297378
64	0xbc71656d	-0.014733654
65	0xbd03015a	-0.03198371
66	0xbc7aa0f7	-0.015297166
67	0x3e08fd47	0.13377868
68	0x3d16ca59	0.036814068
69	0xbcb2f32c	-0.021844469
70	0x3debc3fd	0.11511991
71	0x3a1d40e7	0.0005998746
72	0xbc470712	-0.012147682
73	0xbba32b2f	-0.004979513
74	0xbd8e339a	-0.06943436
75	0x3d80de42	0.06292392
76	0x3cb8e130	0.022568315
77	0x3d2e6972	0.04258103
78	0xbd636b7a	-0.05552242
79	0x3cfda756	0.030963581
80	0x3d96bf26	0.073606774
81	0x3dd95b2d	0.106130935
82	0x3c56f5fa	0.013120169
83	0x3c93be12	0.018034969
84	0xbcaf6aa4	-0.021413155
85	0x3c9a2768	0.018817618
86	0x3e16a32b	0.14710681
87	0x3e135e58	0.14391458
88	0xbccbc0e5	-0.024872253
89	0x3d3a35c6	0.04546144
90	0x3c48c191	0.012253181
91	0xbd223eba	-0.039610602
92	0x3d79ce7d	0.06098794
93	0xbd54abb5	-0.051921565
94	0x3d0e8409	0.034793887
95	0x3e0b7b03	0.13621144
96	0xbd90517b	-0.07046791
97	0xbde2983c	-0.11064193
98	0xbd913697	-0.0709049
99	0xbd41ea27	-0.047342446
100	0xbd90516d	-0.07046781
101	0xbd8ab297	-0.067723446
102	0x3da5d677	0.080975465
103	0x3d91883b	0.07106062
104	0x3d3e2eff	0.046431538
105	0x3c4dc305	0.012558703
106	0x3cbbc0ba	0.022919048
107	0xbd5f224c	-0.054476067
108	0xbd01f2fe	-0.031725876
109	0x3d5565a8	0.0520989
110	0x3d6d1b9a	0.05788765
111	0xbd288b15	-0.041148264
112	0x3d0731f5	0.033006627
113	0xbd9480eb	-0.07251152
114	0xbd704a87	-0.058664825
115	0xbc074935	-0.0082572
116	0x3df81062	0.121125
117	0xbc6bf285	-0.014401083
118	0xbd61d66d	-0.055136133
119	0x3d98d832	0.07463111
120	0xbc2be490	-0.010491505
121	0xbceb014e	-0.028687146
122	0x3dca5536	0.09879534
123	0x3cbacedf	0.022803722
124	0xbdd3372c	-0.103132576
125	0xbd258236	-0.040407382
126	0xb8b569f0	-8.650485e-05
127	0xbd4894aa	-0.048969902
128	0xbe34973c	-0.17635816
129	0x3dfe3167	0.124117665
130	0x3da67025	0.081268586
131	0xbe26dd12	-0.16295269
132	0x3bff640c	0.007793909
133	0x3d442571	0.04788727
134	0x3e037970	0.12839293
135	0xbc9a0bd5	-0.01880447
136	0xbd57fc5d	-0.052730907
137	0x3cffd34d	0.031228686
138	0x3dface0c	0.122463316
139	0xbdad97ac	-0.08476195
140	0x3cb4f7a7	0.022090746
141	0xbd72f352	-0.05931408
142	0x3bd2d4af	0.0064340453
143	0xbd2752ae	-0.040850334
144	0xbda4536c	-0.08023724
145	0xbd8dc858	-0.06922978
146	0x3d725458	0.059162468
147	0x3d0135a0	0.03154528
148	0x3d3a0bcd	0.04542141
149	0x3e1e88a0	0.15481806
150	0xbdbc066a	-0.09180911
151	0x3dc5ca46	0.09657721
152	0x3c6977a7	0.014249719
153	0xbcc61632	-0.024180505
154	0xbc1316e0	-0.008977622
155	0x3da070a9	0.07833988
156	0xbd96e439	-0.07367749
157	0x3cf8eed6	0.030387323
158	0x3d40991c	0.047021016
159	0x3db86700	0.09004021
160	0xbd88cfa5	-0.0668023
161	0x3d0a3a2a	0.033746876
162	0x3d91961d	0.0710871
163	0xbd5f735a	-0.054553367
164	0xbe41d3af	-0.18928407
165	0x3dbceab2	0.09224452
166	0xbdc5cf89	-0.09658725
167	0xbc51800d	-0.012786877
168	0xbd6d28cf	-0.057900246
169	0xbcef7646	-0.029231202
170	0xbd91b956	-0.07115428
171	0x3e0e7b2b	0.13914172
172	0xbd23faaf	-0.040033992
173	0x3bc88323	0.0061191483
174	0x3d754c40	0.05988717
175	0x3b6bcaba	0.0035978989
176	0xbdd0bf4e	-0.101927385
177	0x3da6e614	0.08149353
178	0xbd2d01a9	-0.04223791
179	0xbdc318ec	-0.09526238
180	0xbcc256fb	-0.023723116
181	0x3d667874	0.056267217
182	0x3e094640	0.13405704
183	0xbdc6e709	-0.09712035
184	0xbc45ea7f	-0.012079834
185	0xbe38ab35	-0.1803406
186	0xbd23c567	-0.03998318
187	0xbd599110	-0.053116858
188	0x3d2a4ac5	0.041575212
189	0x3c73f862	0.014890762
190	0x3d58730f	0.052844103
191	0x3d4a95d0	0.04945928
192	0xbdc9a73e	-0.09846352
193	0xbc662564	-0.014047001
194	0x3bc7e917	0.0061007845
195	0x3e23cc81	0.15995981
196	0xbc96e316	-0.01841883
197	0x3bd626a7	0.0065353694
198	0x3e61a268	0.2203461
199	0x3c2ed3ed	0.010670644
200	0xbe1cca94	-0.15311652
201	0x3db7f3b9	0.08982033
202	0x3d133d01	0.03594685
203	0x3cc74666	0.02432556
204	0x3e11b33e	0.14228532
205	0x3ddc547b	0.10758301
206	0x3d7bfaed	0.0615186
207	0x3d6cce19	0.057813738
208	0x3bc83406	0.0061097173
209	0x3de7ea8d	0.11324034
210	0xbda19793	-0.078902386
211	0xbd07e197	-0.033174124
212	0xbd8249b3	-0.06361713
213	0x3cdeeb40	0.027211785
214	0x3e0c7a7a	0.13718596
215	0x3dcbc89d	0.09950373
216	0xbc852c93	-0.016256606
217	0xbe06b610	-0.13155389
218	0x3d66c611	0.056341235
219	0x3d0cb16a	0.034348883
220	0xbceb8381	-0.02874923
221	0xbd9305ca	-0.071788386
222	0xbdb6dc21	-0.08928705
223	0x3d898f1e	0.067167506
224	0xbb1c5620	-0.0023855045
225	0xbe1b97e9	-0.15194668
226	0x3dda9138	0.106722295
227	0x3cbbc67c	0.022921793
228	0xbdf228ee	-0.11824213
229	0xbd99493a	-0.0748467
230	0x3dde2869	0.108475514
231	0xbdb85133	-0.089998625
232	0x3dc9761f	0.09836983
233	0xbdfbf14f	-0.12301885
234	0x3d881cbc	0.06646106
235	0xbe088067	-0.13330232
236	0x3df98622	0.12183787
237	0x3bca4020	0.006172195
238	0xbcf7afb0	-0.030235142
239	0xbde154a9	-0.11002476
240	0x3e0f85a7	0.14015828
241	0x3d38b695	0.045096
242	0xbe0d92ac	-0.13825482
243	0x3de7b973	0.113146685
244	0x3d47e063	0.048797976
245	0x3b7afe16	0.003829842
246	0xbe119c11	-0.14219691
247	0x3d5b020d	0.053468753
248	0x3db3d3c0	0.087806225
249	0xbdc21e0a	-0.09478386
250	0x3b94d58f	0.0045420597
251	0x3bc4f919	0.00601114
252	0x3a0b3518	0.0005310341
253	0x3d04d1bc	0.03242658
254	0x3c4e0b1a	0.012575889
255	0x3d05ba52	0.032648392

world_encoder.2.bias f4 [64]
0	0xbb00da7b	-0.0019661475
1	0xbd1f65ca	-0.038915433
2	0xbd6c57c5	-0.05770089
3	0x3dd1f720	0.102522135
4	0xbd0fcdaf	-0.035108265
5	0xbe35204a	-0.17688099
6	0x3d134e58	0.035963386
7	0xbd907066	-0.07052688
8	0xbd010b24	-0.031504765
9	0x3d6d6815	0.05796059
10	0x3d5d42fc	0.05401896
11	0xbbf4c64b	-0.0074699274
12	0xbd82f07d	-0.06393526
13	0x3cb5fdd7	0.022215767
14	0xbdf1227d	-0.11774156
15	0x3d28d46b	0.041218203
16	0x3d8a4aaf	0.06752526
17	0xbc25d974	-0.010122646
18	0x3dced02a	0.10098298
19	0x3c8fe6a0	0.017566025
20	0xbd68bbb5	-0.056819636
21	0xbdf97a49	-0.12181527
22	0x3d875e2d	0.066097595
23	0x3da286e4	0.079358846
24	0xbd000f44	-0.03126456
25	0x3d660256	0.05615457
26	0xbd409df1	-0.047025625
27	0x3d4d31b1	0.050096218
28	0xbd06e5e9	-0.032934103
29	0xbccd51e2	-0.025063459
30	0x3e01002c	0.12597722
31	0xbd3dd0b1	-0.0463416
32	0xbdcc95db	-0.0998952
33	0xbd8cc52c	-0.06873545
34	0xbce3f670	-0.027827471
35	0x3ca40861	0.020023527
36	0xbdc4837e	-0.09595393
37	0xbceeb28e	-0.029137876
38	0xbd1a18a7	-0.037621167
39	0xbdf0f0d9	-0.11764688
40	0xbe1598ae	-0.14609024
41	0xbd9e870d	-0.07740603
42	0xbe08d5ad	-0.13362761
43	0xbc183d1f	-0.009291916
44	0xbe1febe4	-0.15617329
45	0xbe22c9ca	-0.15897289
46	0xbe135e62	-0.14391473
47	0xbde94d02	-0.11391641
48	0x3b32ae17	0.002726441
49	0xbe0d1929	-0.13779129
50	0xbdb52a35	-0.08845941
51	0xbe1fa8a2	-0.15591672
52	0xbe0727ca	-0.13198772
53	0xbdfcff9e	-0.123534426
54	0xbd5ce8fe	-0.053933136
55	0xbd2dc0bc	-0.042420134
56	0xbdc66de7	-0.09688931
57	0xbdb5292a	-0.08845742
58	0xbdbf1bbc	-0.09331462
59	0xbcb247bc	-0.021762721
60	0xbc0cfbf3	-0.008604991
61	0xbdd3792c	-0.10325846
62	0x3b9d4e0d	0.004800564
63	0xbe316dc2	-0.17327026

self_encoder.0.weight f4 [64, 4]
0	0x3e674a4d	0.22586937
1	0x3f2910ac	0.66041064
2	0xbec16af2	-0.37776905
3	0x3e7caca5	0.24675234
4	0x3ebaeb93	0.36507854
5	0xbf06aa49	-0.52603585
6	0x3e95e322	0.2927485
7	0x3ef41a68	0.47676396
8	0x3deb9664	0.11503294
9	0xbdd8b349	-0.10581071
10	0xbe14f6ee	-0.14547321
11	0xbeb01b25	-0.3439571
12	0x3e6c8013	0.23095731
13	0xbf277242	-0.6540872
14	0xbe83ba8f	-0.2572827
15	0xbde4bbca	-0.111686304
16	0xbef26c6c	-0.47348344
17	0x3eef0c02	0.4668885
18	0xbe24f9cc	-0.16110915
19	0xbe881b2a	-0.26583225
20	0x3e65acad	0.22429152
21	0x3ef702cd	0.48244324
22	0x3eb2134d	0.3478035
23	0xbdccd444	-0.10001424
24	0xbdb2eea8	-0.08736926
25	0xbec150c0	-0.3775692
26	0xbedf89e8	-0.43659902
27	0xbe5ec6cc	-0.21755522
28	0x3d74d60f	0.059774455
29	0xbf00c886	-0.50305974
30	0xbc9a220b	-0.018815061
31	0x3e20febf	0.15722178
32	0x3e076bab	0.13224666
33	0x3f0ee121	0.5581227
34	0x3e15ea80	0.14640236
35	0x3e998288	0.299824
36	0xbe84583a	-0.25848562
37	0x3e894f4e	0.26818317
38	0xbee5737e	-0.44814676
39	0x3e1daba4	0.15397507
40	0xbea17470	-0.31534147
41	0x3e0d6158	0.13806665
42	0xbeea3764	-0.45745385
43	0xbda999a0	-0.08281255
44	0x3ee9a62e	0.45634598
45	0xbe7f1fae	-0.24914429
46	0x3edc94a0	0.43082142
47	0x3d69d607	0.057088878
48	0x3f098b40	0.53728104
49	0x3f356346	0.70854604
50	0xbebe8800	-0.37213135
51	0xbd6274e7	-0.055287268
52	0xbdd14a30	-0.10219228
53	0xbe41974c	-0.18905371
54	0x3e284e08	0.16436017
55	0xbee91694	-0.45525038
56	0xbe9985ea	-0.2998498
57	0xbda086c8	-0.078382075
58	0xbee3c57e	-0.44486612
59	0xbef53402	-0.4789124
60	0x3e9f3632	0.31096035
61	0xbf19135f	-0.5979518
62	0x3ef3a0b8	0.47583556
63	0xbe636e8a	-0.22210136
64	0xbd2355f0	-0.03987688
65	0x3e9a5c56	0.30148572
66	0xbefc7408	-0.49307275
67	0xbef93e26	-0.48680228
68	0x3d1ff83f	0.039055105
69	0xbe4b6877	-0.19864069
70	0x3e7ce88d	0.24698086
71	0x3e2e6498	0.17030561
72	0x3e2b41c8	0.16724312
73	0x3d04467e	0.03229379
74	0x3f117a8a	0.56827605
75	0x3e0ef23b	0.13959591
76	0x3eb759a2	0.35810572
77	0xbedaa1f3	-0.42701682
78	0x3eed77f8	0.4638059
79	0xbd73c936	-0.05951806
80	0x3ecd7705	0.40129867
81	0xbeeb3039	-0.45935228
82	0xbe5462dd	-0.20740838
83	0xbe230fbe	-0.15923974
84	0x3ea3c86c	0.31988847
85	0x3e37a84d	0.17935295
86	0xbef39d72	-0.4758106
87	0x3f086d43	0.5329172
88	0x3e826861	0.2547026
89	0x3f3a89af	0.7286634
90	0x3cba6813	0.022754705
91	0x3e37586e	0.17904827
92	0x3eecc3b5	0.46243063
93	0xbf05dbf0	-0.52288723
94	0x3f1eda9e	0.62052333
95	0xbe8522fd	-0.26003256
96	0x3de57f61	0.11205936
97	0xbdb342fa	-0.08753009
98	0xbec51613	-0.38493404
99	0x3ef83a1c	0.48481834
100	0xbc4dd4e3	-0.012562963
101	0xbe69ae7b	-0.22820465
102	0x3f08f203	0.5349428
103	0x3f12617b	0.57179993
104	0xbecb94e1	-0.39762023
105	0xbe5f938a	-0.21833625
106	0x3e861ad3	0.2619234
107	0x3f00eefd	0.5036467
108	0xbe37a55a	-0.1793417
109	0xbdea497d	-0.11439798
110	0xbeb8345c	-0.35977447
111	0x3e03d3a0	0.12873697
112	0x3dfc8ca0	0.123315096
113	0xbc012e40	-0.007884562
114	0xbd4fb6c0	-0.050711393
115	0xbeb23910	-0.3480916
116	0xbe3aa072	-0.18225268
117	0xbe29a429	-0.16566528
118	0x3e1e85e9	0.1548077
119	0x3e77d443	0.24202065
120	0x3e6f075c	0.23342651
121	0xbec36908	-0.3816607
122	0xbd1ddde0	-0.038541675
123	0xbdc36c50	-0.09542143
124	0x3f03d4e0	0.51496696
125	0x3f1f4750	0.6221819
126	0xbefa6e4b	-0.48912272
127	0xbe5c5012	-0.2151492
128	0xbed2b9ef	-0.4115748
129	0xbe1abb70	-0.15110564
130	0xbedda7c1	-0.4329205
131	0x3e48841d	0.19581647
132	0xbe61cc4c	-0.2205059
133	0xbe807bbe	-0.25094408
134	0x3cc19500	0.023630619
135	0xbe2397dc	-0.15975899
136	0x3f0214af	0.5081281
137	0x3f3aec36	0.7301668
138	0xbee6027f	-0.4492378
139	0x3ea5f855	0.32416025
140	0x3de35223	0.11099651
141	0x3f06c58f	0.526452
142	0xbe7637f5	-0.24044783
143	0x3d56be4d	0.05242758
144	0x3e1142fc	0.14185709
145	0x3edb7b7d	0.42867652
146	0x3eb0ff81	0.34569934
147	0x3ea37087	0.3192179
148	0x3d7b58c0	0.061363935
149	0xbecc393e	-0.39887422
150	0xbe930f2e	-0.2872252
151	0xbe91d758	-0.28484607
152	0xbf01a463	-0.5064146
153	0x3ef11ea3	0.47093686
154	0xbe618540	-0.22023487
155	0xbead6098	-0.33862758
156	0xbdc9508c	-0.09829816
157	0x3ee55ff0	0.44799757
158	0xbe55229b	-0.20813982
159	0xbe84286c	-0.2581209
160	0xbebf5760	-0.3737135
161	0x3de10a48	0.10988289
162	0xbca793e0	-0.020456254
163	0xbee6f9f6	-0.4511258
164	0xbeaf1cf2	-0.3420177
165	0xbedddb08	-0.4333117
166	0x3e2fa4c8	0.17152703
167	0x3e67b428	0.22627318
168	0x3dae6df0	0.08517063
169	0xbe240920	-0.16019106
170	0xbe892904	-0.26789105
171	0x3e4a6a2c	0.19767064
172	0xbdeb25c0	-0.114818096
173	0xbda45ff8	-0.08026117
174	0xbe27d7e4	-0.1639095
175	0x3db1f7c8	0.08689839
176	0x3e82796b	0.2548326
177	0x3ead6e90	0.33873415
178	0x3f26bd80	0.65132904
179	0xbd80ce54	-0.06289354
180	0x3e2b03ae	0.16700622
181	0xbee68503	-0.45023355
182	0xbe6957e9	-0.22787441
183	0x3f0512f4	0.51982045
184	0x3e2fa9b1	0.17154576
185	0xbecbfa26	-0.39839286
186	0x3ecad69e	0.39616865
187	0x3e8d40f5	0.2758862
188	0x3e338448	0.1753093
189	0x3e4fdef6	0.20299897
190	0x3d6e9841	0.05825067
191	0xbebad725	-0.36492267
192	0xbed2deab	-0.41185507
193	0x3f368370	0.7129431
194	0x3e9b4683	0.30327234
195	0xbeb82f76	-0.3597371
196	0x3ec7be43	0.39012346
197	0xbf350e27	-0.7072472
198	0x3ef33895	0.47504106
199	0x3ea011c7	0.31263563
200	0x3ed02e46	0.40660304
201	0x3ef24ea9	0.47325638
202	0xbead9120	-0.33899784
203	0xbdb08e3f	-0.08620881
204	0x3df99f9f	0.121886484
205	0xbc9ec056	-0.019378822
206	0x3f145915	0.5794843
207	0xbb377bed	-0.002799745
208	0x3e52d694	0.20589668
209	0xbec155b6	-0.37760705
210	0xbdcfd858	-0.10148686
211	0x3e983d78	0.29734397
212	0x3cb61981	0.022228958
213	0x3ec08d7e	0.3760795
214	0xbec4e007	-0.3845217
215	0xbeb3f7f3	-0.35150108
216	0x3e8ddc5d	0.27707186
217	0x3e7cb7a7	0.24679433
218	0xbee135ee	-0.43986458
219	0x3e9b5c54	0.30343878
220	0x3e100dbc	0.14067739
221	0x3ebf8f1d	0.37413874
222	0x3e31cdfe	0.17363736
223	0xbe64e2ca	-0.22352138
224	0xbe284cab	-0.16435497
225	0xbed90419	-0.4238594
226	0x3f04abc5	0.518246
227	0xbde764a0	-0.112984896
228	0x3effb4a7	0.49942514
229	0xbeb8454b	-0.35990366
230	0x3e75f695	0.24019845
231	0x3ef833b6	0.48476952
232	0xbe896158	-0.2683208
233	0xbef2cf90	-0.47423983
234	0x3d93abe8	0.07210523
235	0xbeb8afb4	-0.3607155
236	0x3ea4435d	0.32082644
237	0xbc71bb3c	-0.014754113
238	0x3f02ee94	0.5114529
239	0xbd6c1d56	-0.057645164
240	0xbe83becf	-0.25731513
241	0xbf303bf9	-0.6884151
242	0xbe27a12a	-0.16370073
243	0x3eebb294	0.46034682
244	0xbd9dff9f	-0.077147715
245	0x3e7853df	0.24250744
246	0xbe1c46b1	-0.15261342
247	0xbe5c289e	-0.21499869
248	0x3f096acd	0.5367859
249	0x3defe9f6	0.117145464
250	0xbe6f13ea	-0.2334744
251	0x3f095cf2	0.5365745
252	0x3ed1ed51	0.4100137
253	0x3df90f03	0.121610664
254	0x3f017c2e	0.5058011
255	0xbe75344d	-0.23945732

self_encoder.0.bias f4 [64]
0	0x3e363d45	0.1779681
1	0x3c2e5d82	0.010642411
2	0x3db218a8	0.08696109
3	0x3eb7ae15	0.35875002
4	0xbe29f47c	-0.1659717
5	0x3f147852	0.57996094
6	0x3b20b300	0.0024520755
7	0x3e9c8e5c	0.30577362
8	0x3d830f86	0.06399445
9	0xbef6bd54	-0.4819132
10	0xbe991c48	-0.2990439
11	0xbe8157fe	-0.25262445
12	0x3def22b3	0.1167654
13	0xbeabbc74	-0.33542216
14	0xbecb9632	-0.39763027
15	0x3e67c91b	0.2263531
16	0xbee01658	-0.43767047
17	0xbe8522dc	-0.26003158
18	0xbe52e9b2	-0.2059696
19	0x3e907abe	0.28218645
20	0x3f1a185f	0.6019344
21	0x3e635258	0.2219938
22	0xbe286c96	-0.16447672
23	0x3efca7cf	0.49346778
24	0x3f066258	0.5249381
25	0xbad1b773	-0.0016000107
26	0x3edef914	0.43549407
27	0x3e158fed	0.14605685
28	0xbeb21216	-0.34779423
29	0xbddbc6e2	-0.10731293
30	0xbecc2b26	-0.3987667
31	0x3e1f5a8f	0.15561889
32	0x3e762992	0.24039295
33	0xbefbcb72	-0.49178654
34	0xbdac0a6b	-0.084004246
35	0x3dcd6bbd	0.10030315
36	0x3f0bf3e5	0.5466903
37	0xbe8b7d98	-0.27244258
38	0xbd18fafb	-0.03734873
39	0x3dfe12c3	0.12405922
40	0xbe80bc9a	-0.25143892
41	0xbe657d40	-0.2241106
42	0xbe08fdd8	-0.13378084
43	0xbe18fcfc	-0.14940256
44	0xbc6519ce	-0.013983203
45	0x3e1f7e14	0.15575439
46	0x3dad0776	0.08448689
47	0xbe7ebd5e	-0.24876925
48	0x3ea5d1a7	0.32386515
49	0x3ebd1335	0.36928716
50	0x3c1c188a	0.009527335
51	0xbd86e2a9	-0.06586201
52	0xbef9817a	-0.48731595
53	0xbec4e0a5	-0.3845264
54	0x3db1ea93	0.086873196
55	0x3c91e661	0.017810049
56	0x3ea9c3b6	0.33157128
57	0xbe3b4227	-0.18286954
58	0xbdd41770	-0.10356033
59	0x3e081463	0.13289027
60	0x3f13273a	0.5748173
61	0x3ed38ceb	0.4131845
62	0xbe56e9db	-0.20987646
63	0x3da8f9f8	0.08250803

self_encoder.2.weight f4 [32, 64]
0	0xbdce2f6a	-0.10067637
1	0x3e11718b	0.1420347
2	0x3e2e90bc	0.170474
3	0x3e1349ee	0.1438367
4	0xbcda4660	-0.026644886
5	0xbde89fef	-0.1135863
6	0xbd35e1e4	-0.04440488
7	0xba286ee1	-0.00064252137
8	0xb9d1533c	-0.000399256
9	0xbdc50f22	-0.09622027
10	0xbd7cfff0	-0.06176752
11	0x3c90d0f8	0.017677769
12	0x3cdf7747	0.027278556
13	0xbd164d2c	-0.03669469
14	0x3dde7818	0.1086275
15	0x3d580d47	0.052747037
16	0x3dc1ce38	0.09463161
17	0xbce2c886	-0.027683508
18	0xbd52440d	-0.05133443
19	0x3e345eeb	0.17614333
20	0xbc4fcf30	-0.012683675
21	0xbdc78cec	-0.097436756
22	0xbdd63f7e	-0.10461329
23	0x3d79ca9d	0.060984243
24	0x3d330078	0.04370162
25	0x3e6d1bf4	0.23155195
26	0xbc900c7e	-0.017584082
27	0xbd2ecded	-0.042676855
28	0x3d504a6c	0.050852224
29	0xbce66cb4	-0.028128006
30	0x3b0a9300	0.0021144748
31	0xbdddca58	-0.1082961
32	0xbce752e9	-0.028237777
33	0x3dcc5796	0.09977643
34	0xbe1f8bf9	-0.15580739
35	0xbdb02daf	-0.086024635
36	0x3dd7bcca	0.105340555
37	0x3dc62f0c	0.09676942
38	0x3d6f5516	0.058430754
39	0xbce53f90	-0.02798441
40	0xbd04cea4	-0.03242363
41	0x3c234cb0	0.009967014
42	0xbd5b9fc4	-0.05361916
43	0xbdf846d4	-0.121228844
44	0x3dc4ab86	0.09603028
45	0x3d932d2d	0.07186351
46	0x3d444a9a	0.047922708
47	0xbd6af185	-0.057359237
48	0xbe4b5ca4	-0.19859558
49	0xbc253621	-0.010083706
50	0xbe3ed8de	-0.18637416
51	0x3d617fac	0.055053398
52	0xbddfd3f8	-0.10929102
53	0xbdbdd114	-0.09268394
54	0xbe28ffd8	-0.16503847
55	0xbe3adef9	-0.1824912
56	0x3e2d51a3	0.16925673
57	0x3ded60cf	0.115907304
58	0x3ce0b5a0	0.027430356
59	0x3e15f03a	0.1464242
60	0x3e0ace54	0.1355527
61	0xbd51fe2b	-0.051267784
62	0xbd276bcb	-0.040874284
63	0x3e063965	0.13107832
64	0x3e523b6b	0.20530479
65	0xbe6e7bf2	-0.23289469
66	0xbd602492	-0.054722376
67	0xbec96440	-0.39334297
68	0xbdaf1cc2	-0.08550407
69	0xbcaab6c0	-0.020839095
70	0xbde7be04	-0.113155395
71	0xbe8a0a47	-0.26960966
72	0x3ce56a4d	0.02800479
73	0x3d12fb8c	0.035884425
74	0x3d1b1d50	0.03786975
75	0xbe0b392f	-0.13596033
76	0x3e02277b	0.12710373
77	0x3b5ce0c0	0.0033703297
78	0x3d9ab014	0.075531155
79	0xbe8ff62a	-0.28117496
80	0x3db5e032	0.088806525
81	0x3d5ba496	0.05362376
82	0xbdd9a0a1	-0.10626341
83	0xbcaaaa78	-0.020833239
84	0xbd995919	-0.07487697
85	0x3d40a7d3	0.04703505
86	0x3eb84e1c	0.35997093
87	0xbd949e88	-0.072568
88	0x3dbd273e	0.092360005
89	0xbe488ff3	-0.19586162
90	0xbe4a2d5c	-0.19743866
91	0x3de035cb	0.1094776
92	0x3becf4e0	0.00723134
93	0x3d9749f6	0.07387154
94	0xbd04b5a8	-0.032399803
95	0x3e590fb6	0.211974
96	0xbda66b4e	-0.081259355
97	0x3b907ba0	0.0044092685
98	0x3e9899d9	0.29804876
99	0x3e3573cb	0.17719953
100	0x3e1123ba	0.14173785
101	0x3d3c499c	0.045968637
102	0x3d8f43f5	0.06995384
103	0x3e920e69	0.2852662
104	0xbcf92660	-0.030413806
105	0xbcee64b8	-0.02910076
106	0x3da0fb30	0.0786041
107	0xbd818daa	-0.063258484
108	0xbd3b26bc	-0.045691237
109	0xbe135138	-0.14386451
110	0xbe9dce63	-0.30821523
111	0xbd5a3f93	-0.053283285
112	0x3e4f2f1c	0.20232815
113	0xbdeef31a	-0.11667462
114	0x3df51a77	0.119679384
115	0xbdc1f64a	-0.09470804
116	0x3da45416	0.080238506
117	0xbda24738	-0.0792374
118	0x3e7147f6	0.23562607
119	0x3dddf76c	0.108382076
120	0xbe7ca627	-0.24672757
121	0xbe98d55e	-0.29850286
122	0xbd064b24	-0.032786503
123	0x3da2fa09	0.07957847
124	0xbeaeb9f9	-0.3412626
125	0xbd053969	-0.032525454
126	0x3de32f10	0.11092961
127	0x3db94ded	0.09048066
128	0xbe479f36	-0.19494328
129	0x3eb11897	0.34589073
130	0x3e512f7e	0.20428273
131	0x3ec2c71b	0.3804253
132	0xbd926d22	-0.07149722
133	0xbe09d573	-0.1346033
134	0xbdefeb66	-0.117148206
135	0x3e1366ae	0.14394638
136	0xbe580df8	-0.21099079
137	0x3d6e8694	0.058233812
138	0x3c38b430	0.011273429
139	0x3e755cd5	0.23961194
140	0xbe8b2350	-0.2717538
141	0xbdd71f74	-0.10504046
142	0xbcbe8e48	-0.023261204
143	0x3e5b5d9b	0.21422426
144	0x3dd7898e	0.10524283
145	0xbc3a9368	-0.011387683
146	0x3e31687c	0.17325014
147	0x3d8a28ac	0.06746039
148	0x3d14be97	0.036314573
149	0xbe22e787	-0.15908633
150	0xbe8fc47a	-0.28079587
151	0x3d623d36	0.055234157
152	0xbdf9e1a8	-0.12201244
153	0x3e15da89	0.14634146
154	0x3d120192	0.03564603
155	0xbdb669dd	-0.089069106
156	0xbdbde35c	-0.09271881
157	0xbe0a63f4	-0.13514692
158	0xbce57670	-0.028010577
159	0xbe81ded9	-0.25365332
160	0x3dca1720	0.09867692
161	0xbd09702c	-0.03355424
162	0xbe1c0545	-0.15236385
163	0xbe9222b9	-0.28542116
164	0xbd168103	-0.03674413
165	0xbdf09962	-0.117480054
166	0x3d4247cd	0.047431756
167	0xbdba2ffc	-0.090911835
168	0xbdf8c5d0	-0.12147105
169	0x3d5f4358	0.054507583
170	0x3c825e58	0.015914127
171	0xbd9fe33e	-0.07807015
172	0xbdfcdb26	-0.12346487
173	0x3eac0eb1	0.3360496
174	0x3e063165	0.1310478
175	0x3dd0aa0b	0.10188683
176	0xbe1847bf	-0.14871119
177	0x3e40a8f1	0.18814446
178	0xbe7bb4db	-0.2458071
179	0x3dd8dd3b	0.10589071
180	0x3cdc7d10	0.026915103
181	0x3dc89a4d	0.097950555
182	0xbe8f4a06	-0.27986163
183	0xbe31dfba	-0.17370501
184	0x3e55d401	0.20881654
185	0x3dbd2e85	0.092373885
186	0x3cae8340	0.02130282
187	0x3db773da	0.08957644
188	0x3ead64fc	0.33866107
189	0xbe0fbfe4	-0.14038044
190	0xbd90b5a6	-0.07065897
191	0xbde12360	-0.10993075
192	0x3e6750e1	0.22589447
193	0xbea62bb4	-0.32455218
194	0xbe512e5b	-0.2042784
195	0xbe6e2172	-0.23254946
196	0xbc415570	-0.011800155
197	0x3c9531ed	0.018212283
198	0x3dee3496	0.11631124
199	0xbd99d78f	-0.07511818
200	0x3e2248d9	0.15848102
201	0xbde8393e	-0.11339043
202	0xbc9da8b8	-0.01924549
203	0xbe06798f	-0.13132308
204	0x3c6141b8	0.013748579
205	0x3dd616be	0.104535565
206	0x3da7fdb2	0.082026854
207	0xbe7af536	-0.24507603
208	0xbcd5b488	-0.02608706
209	0xbd9662de	-0.07343076
210	0xbcc0509e	-0.023475941
211	0xbddac0c9	-0.10681302
212	0xbe1d2242	-0.153451
213	0x3e11b191	0.14227892
214	0x3e61ae9c	0.22039264
215	0xbdeccb44	-0.11562207
216	0x3d211008	0.03932193
217	0xbe636868	-0.22207797
218	0xbe77e5ca	-0.24208751
219	0x3d9aa1d6	0.07550399
220	0xbda74db6	-0.08169119
221	0x3d81b709	0.06333739
222	0xbd19edac	-0.037580177
223	0x3e5db98c	0.21652812
224	0x3c11d641	0.00890118
225	0xbd691f18	-0.05691442
226	0x3de02207	0.1094399
227	0x3e945f62	0.2897902
228	0xbdb74352	-0.08948387
229	0x3d112358	0.035434097
230	0x3dd57cab	0.10424169
231	0x3d8446b1	0.06458796
232	0xbdd6dc52	-0.104912415
233	0x3c50ee70	0.01275216
234	0xbd48fc28	-0.0490686
235	0xbdbbed06	-0.09176068
236	0x3db48dc4	0.08816102
237	0xbeb6ad73	-0.35679206
238	0xbe82c012	-0.25537163
239	0xbdd4954d	-0.10380039
240	0x3e33d35c	0.17561096
241	0xbe106971	-0.14102723
242	0x3e765fee	0.24060032
243	0xbd0aa3fa	-0.033847786
244	0xba019f00	-0.00049446523
245	0xbd22fe7d	-0.03979348
246	0x3e86ea88	0.26350808
247	0x3e014f11	0.12627818
248	0xbe350233	-0.1767662
249	0xbe93572f	-0.28777453
250	0xbdfae762	-0.12251164
251	0xbdfad764	-0.12248114
252	0xbeb0afd8	-0.34509158
253	0x3d7c0513	0.061528277
254	0x3d7305de	0.059331767
255	0xbcd61bc4	-0.026136287

self_encoder.2.bias f4 [32]
0	0x3cf2bf8b	0.02963235
1	0x3d3f3b89	0.046687637
2	0xbe0c76e8	-0.13717234
3	0xbd914f10	-0.07095158
4	0xbd6fd791	-0.05855519
5	0xbe666260	-0.22498465
6	0x3d295457	0.0413402
7	0xbd193794	-0.03740652
8	0xbe083fb0	-0.13305545
9	0xbcd893b8	-0.026437625
10	0xbdd3db2b	-0.10344537
11	0x3da2ccbf	0.079492085
12	0xbcf89afe	-0.030347344
13	0xbde0ce12	-0.10976805
14	0xbc66cd9c	-0.014087107
15	0x3c4be320	0.012444288
16	0x3ca74ea4	0.020423241
17	0xbe125178	-0.1428889
18	0xbe8823c0	-0.26589775
19	0xbe3a8756	-0.18215689
20	0xbce71315	-0.028207341
21	0xbe4d3f64	-0.20043713
22	0xbe58654c	-0.21132392
23	0xbbff2d59	-0.0077873883
24	0xbe454b81	-0.19267084
25	0xbd64ac07	-0.05582812
26	0xbe3c4ce4	-0.18388706
27	0xbd185e2c	-0.037199184
28	0x3d399278	0.0453057
29	0xbe09a0b1	-0.13440205
30	0xbe786d5e	-0.2426047
31	0xbe3fa301	-0.18714525

world_model.0.weight f4 [128, 37]
0	0x3d28a5b3	0.041173648
1	0xbd61868f	-0.055059966
2	0xbe065b01	-0.13120653
3	0xbe14cac2	-0.14530471
4	0x3da05261	0.078282125
5	0x3df2b334	0.118505865
6	0xbd7f0dc5	-0.06226899
7	0x3bcddf07	0.0062826904
8	0xbdce1ad6	-0.10063712
9	0x3dc2667b	0.09492203
10	0xbddd3f43	-0.10803082
11	0xbdbef3a3	-0.09323814
12	0xbd89167f	-0.06693744
13	0xbcf751aa	-0.030190308
14	0x3ca66e61	0.020316305
15	0xbe1eb2c2	-0.15497878
16	0xbd7642fb	-0.06012247
17	0xbd921fcc	-0.07134971
18	0xbd08c921	-0.033394936
19	0xbc195673	-0.00935899
20	0x3bfc6a02	0.007703067
21	0x3dabeaff	0.08394431
22	0xbdbfadf4	-0.09359351
23	0x3b6b11eb	0.0035868834
24	0x3e18fbc7	0.14939795
25	0x3cacc14d	0.021088267
26	0xbdfa1c5f	-0.122124426
27	0x3de67336	0.112524435
28	0xbe1564a0	-0.14589167
29	0x3d88d780	0.06681728
30	0x3e0b5f9f	0.13610695
31	0x3ca8c9d9	0.020604061
32	0x3db4984d	0.088181116
33	0x3e059505	0.13045128
34	0x3d99bcd2	0.07506718
35	0xbd4a4ac5	-0.049387712
36	0x3d126a8f	0.035746153
37	0x3e0828dd	0.13296838
38	0x3d1de27f	0.03854608
39	0xbe05cad0	-0.13065648
40	0x3e127cd6	0.14305434
41	0x3e2324b8	0.15931976
42	0x3dc36192	0.095400944
43	0x3db70951	0.08937324
44	0x3dbd2abe	0.09236668
45	0xbdcc6bd8	-0.09981507
46	0xbd4a1db9	-0.049344752
47	0x3d9184f1	0.07105435
48	0x3d2b809e	0.041870706
49	0x3d8f1314	0.06986061
50	0xbb4bea98	-0.003111517
51	0xbe223ba1	-0.15843059
52	0x3d9f96ed	0.07792459
53	0xbdd3c621	-0.103405245
54	0xbe0b1d7f	-0.1358547
55	0x3e267b3d	0.16257949
56	0x3d946bf2	0.072471514
57	0x3da75411	0.08170331
58	0xbd938396	-0.072028324
59	0x3d78258e	0.06058269
60	0x3c64eaa6	0.01397196
61	0x3de5a8ee	0.112138614
62	0x3c9d89fd	0.019230837
63	0x3e16768b	0.14693658
64	0xbd1db7b6	-0.03850528
65	0x3e1b59a1	0.1517091
66	0x3e26b8d8	0.1628145
67	0x3c9f4b6a	0.01944514
68	0xbdf6db86	-0.120535895
69	0x3887033e	6.4379055e-05
70	0x3e060018	0.13085973
71	0xbde608cb	-0.11232146
72	0xbd70a788	-0.05875352
73	0x3d737f2f	0.059447464
74	0x3d08d313	0.03340442
75	0x3e1e403e	0.15454194
76	0x3cddd307	0.027078165
77	0xbaa4c8c7	-0.0012572043
78	0x3cb1001a	0.021606494
79	0xbd0a8216	-0.033815466
80	0xbe1afac3	-0.1513472
81	0xbd6c2f31	-0.057662193
82	0xbe189b01	-0.1490288
83	0x3df659a1	0.12028814
84	0x3c22f899	0.009946966
85	0x3c9cd154	0.019142784
86	0xbc3aef7a	-0.011409635
87	0xbdacc0e1	-0.08435226
88	0xbded878c	-0.11598119
89	0xbcce234b	-0.025163313
90	0x3d4bbd24	0.049740925
91	0xbdb83f9f	-0.0899651
92	0xbdd04d7e	-0.101710305
93	0x3ddabf7e	0.106810555
94	0xbd69ccb8	-0.05708
95	0x3dbdaefd	0.09261892
96	0x3e212954	0.15738422
97	0x3e1e3a67	0.15451966
98	0xbe022845	-0.12710674
99	0x3c47c9c2	0.012194099
100	0xbe040000	-0.12890625
101	0x3bde57b2	0.0067853564
102	0x3cbb49d0	0.022862345
103	0xbd91ba33	-0.07115593
104	0x3d47dd0e	0.0487948
105	0xbd53192c	-0.051537678
106	0x3dbdb1c1	0.092624195
107	0x3acd6c9b	0.0015672626
108	0x3de9b41e	0.11411308
109	0x3de39169	0.11111719
110	0x3d165e06	0.03671076
111	0x3cfb6c37	0.03069125
112	0xbd9862ec	-0.07440743
113	0xbdde5625	-0.108562745
114	0x3de2ff7c	0.11083886
115	0x3dde300e	0.108490095
116	0x3cd332cc	0.025781058
117	0x3e0d3eb3	0.13793449
118	0x3dafcd20	0.08584046
119	0x3ddbefbc	0.10739085
120	0xbd01288f	-0.03153282
121	0x3cc0831e	0.023500022
122	0xbe175b89	-0.14781012
123	0xbe19d14d	-0.15021248
124	0x3da01650	0.07816756
125	0xbdcaf444	-0.09909871
126	0x3e0036e6	0.12520942
127	0xbe07d677	-0.13265406
128	0xbe0b5c16	-0.13609347
129	0xbe0a300b	-0.1349489
130	0x3dd81472	0.10550775
131	0xbddf2b66	-0.108969495
132	0xbe105e49	-0.14098467
133	0x3d8e397f	0.0694456
134	0xbd07d2fb	-0.03316019
135	0xbe205742	-0.15658286
136	0x3deec9a3	0.11659553
137	0x3df40615	0.119152226
138	0x3e070913	0.13187055
139	0x3dd359ed	0.10319886
140	0xbe02831a	-0.12745324
141	0xbd943790	-0.0723716
142	0xbd84507d	-0.064606644
143	0xbe23b787	-0.15987979
144	0x3deb49d6	0.114886925
145	0xbd88406b	-0.06652912
146	0x3d671f27	0.056426194
147	0xbdab34f4	-0.083597094
148	0x3e16db2d	0.14732046
149	0x3ded3cdc	0.11583874
150	0x3de85fa3	0.11346366
151	0x3da4caf0	0.0804652
152	0x3e0cea4f	0.13761257
153	0x3d5c2921	0.05375016
154	0x3ce623bf	0.028093217
155	0xbd17d5b2	-0.03706903
156	0x3e08cbf4	0.13359052
157	0xbe226ff4	-0.15863019
158	0x3df076ef	0.11741435
159	0xbc7eda3b	-0.01555496
160	0xbc325002	-0.010883333
161	0xbddd5852	-0.108078614
162	0xbd933463	-0.07187726
163	0x3cfe0af7	0.031011088
164	0xbd89326f	-0.066990726
165	0x3d6fb9da	0.05852685
166	0x3cbdb9bf	0.02315986
167	0xbe0f4dec	-0.13994569
168	0x3db80406	0.089851424
169	0xbd943e01	-0.07238389
170	0xbd734b31	-0.05939788
171	0xbd77d409	-0.060504947
172	0x3d850810	0.064956784
173	0xbe25ff99	-0.16210784
174	0xbdf2a4c0	-0.1184783
175	0x3d877f1e	0.066160426
176	0xbd4c07cc	-0.049812123
177	0xbcff8bbd	-0.031194562
178	0xbe174154	-0.14771014
179	0x3c88940c	0.016672157
180	0x3d9e74a6	0.07737093
181	0xbd730f94	-0.05934103
182	0x3c4ddd8c	0.012565028
183	0x3b98c6d9	0.0046623764
184	0xbd0e96d8	-0.034811825
185	0x3e07c8a8	0.13260138
186	0x3d2d6879	0.04233596
187	0x3cfffb1f	0.031247674
188	0xbba790a0	-0.005113676
189	0xbb61cc54	-0.0034454064
190	0x3db4cc17	0.088279895
191	0x3c1ae925	0.009455
192	0x3d18608d	0.037201453
193	0x3e089f09	0.13341917
194	0x3dee0ee9	0.11623938
195	0xbd771f7b	-0.060332756
196	0xbe09d952	-0.13461807
197	0x3d315ca3	0.043301236
198	0xbde5f4f9	-0.112283655
199	0xbe276ce0	-0.16350126
200	0x3de733ac	0.112891525
201	0xbe0b86e0	-0.1362567
202	0x3e262966	0.1622673
203	0xbe1b16e7	-0.15145455
204	0xbe0912a0	-0.13386011
205	0x3dc192d4	0.09451833
206	0x3c4fd56e	0.012685163
207	0xbd92bfa0	-0.07165456
208	0x3d7f9851	0.06240112
209	0xbddac1b4	-0.10681477
210	0xbdb9935a	-0.09061308
211	0xbe221fc8	-0.15832436
212	0xbdac7672	-0.08421029
213	0xbe10980d	-0.14120503
214	0x3e104080	0.14087105
215	0xbd925de1	-0.07146812
216	0x3ce48014	0.027893104
217	0xbd975482	-0.073891655
218	0xbd1a4552	-0.037663765
219	0x3df5f4c0	0.12009573
220	0x3d090b57	0.03345808
221	0x3da28f50	0.07937491
222	0x3d5c05e3	0.05371655
223	0xbe093444	-0.13398844
224	0x3dca3355	0.09873072
225	0x3e086580	0.13319969
226	0x3d493e0a	0.04913143
227	0x3e061a2c	0.13095921
228	0xbda06c80	-0.07833195
229	0xbddc4903	-0.107561134
230	0xbe0736ea	-0.13204542
231	0xbcd4f26a	-0.025994498
232	0xbc85302f	-0.016258327
233	0xbdbf5f03	-0.09344294
234	0xbd664994	-0.056222513
235	0xbd58dae8	-0.05294314
236	0x3e225b42	0.15855125
237	0xbc40585f	-0.011739819
238	0x3e0879f7	0.13327776
239	0x3c81bb25	0.015836308
240	0x3d6ff2d6	0.058581196
241	0x3dc20555	0.09473673
242	0xbe1af2c0	-0.15131664
243	0xbd97c31b	-0.0741026
244	0xbdffe17e	-0.12494181
245	0x3e238a81	0.15970804
246	0x3d771c47	0.0603297
247	0xbd8d1dd3	-0.06890454
248	0xbdfde715	-0.12397591
249	0x3dba72ea	0.09103949
250	0x3d1c4e33	0.038160514
251	0xbda5a419	-0.0808794
252	0xbdf459c6	-0.119311854
253	0xbdafb607	-0.08579641
254	0x3d23fa3b	0.04003356
255	0xbe0dbccb	-0.1384155

world_model.0.bias f4 [128]
0	0xbe097084	-0.13421828
1	0xbdc337c5	-0.095321216
2	0x3d06edaf	0.032941516
3	0x3e1ebf8d	0.15502758
4	0x3de91de1	0.11382652
5	0xbd89151f	-0.06693482
6	0x3d1c7c7f	0.038204666
7	0x3de7b773	0.11314287
8	0x3d0c4ee0	0.03425491
9	0xbe09ac4c	-0.13444632
10	0x3ca51fe9	0.020156818
11	0x3d891ed7	0.06695335
12	0x3cdc7d13	0.026915109
13	0x3e19c3e7	0.15016137
14	0x3e0c7cd1	0.13719489
15	0xbdbc2164	-0.09186056
16	0x3dfffb5e	0.12499116
17	0xbe16a9e8	-0.14713252
18	0xbdbf2457	-0.09333103
19	0x3d8883d0	0.06665766
20	0x3ba37745	0.0049885833
21	0x3e116178	0.14197338
22	0x3dc852bb	0.097814046
23	0xbd0f7372	-0.035022207
24	0x3e20fc50	0.1572125
25	0xbdf1a139	-0.11798329
26	0x3cfafc8c	0.030638002
27	0x3d56e88d	0.05246787
28	0x3e0398ca	0.12851253
29	0x3e24b580	0.16084862
30	0x3da42ead	0.08016715
31	0xbd960bc0	-0.0732646
32	0x3e075cb5	0.13218959
33	0x3de7cb30	0.11318052
34	0xbb545b20	-0.0032402948
35	0x3df1b4a5	0.11802033
36	0x3cd68c82	0.026190046
37	0xbc6a3914	-0.014295835
38	0x3d500a4e	0.050791077
39	0x39f0e7fa	0.00045949203
40	0xbd3dc455	-0.046329815
41	0x3cc38176	0.023865443
42	0xba8f9302	-0.0010953846
43	0xbde75201	-0.11294938
44	0xbdf6b751	-0.120466836
45	0x3d5d4493	0.054020476
46	0xbd831be7	-0.06401806
47	0x3b83c06d	0.0040207417
48	0x3e14aa59	0.14518107
49	0x3df86364	0.12128332
50	0x3dbb0e57	0.091335945
51	0x3db349b6	0.087542936
52	0x3de3fb16	0.11131875
53	0xbde1ca43	-0.110249065
54	0x3e1ca6b9	0.15297975
55	0xbdf843d6	-0.12122314
56	0xbdda2d6d	-0.106531955
57	0xbd89ebe1	-0.067344435
58	0x3e2488a7	0.16067754
59	0x3dbc7881	0.09202672
60	0x3d3cbb6c	0.046077177
61	0x3dc33399	0.09531326
62	0xbe20c7c6	-0.15701208
63	0xbe209079	-0.15680112
64	0x3d51cc3e	0.05122017
65	0xbd381f6e	-0.04495185
66	0x3da11faf	0.07867371
67	0xbdeef4c8	-0.11667782
68	0x3e1f6370	0.15565276
69	0xbe12dbc9	-0.14341654
70	0x3dab98a2	0.08378722
71	0x3db160d7	0.08661049
72	0xbdb48ea5	-0.0881627
73	0x3e14c2e9	0.14527477
74	0x3daf708c	0.085663885
75	0xbd99b7fb	-0.075057946
76	0xbd9851b4	-0.07437459
77	0x3e00d515	0.12581284
78	0xbd25dce3	-0.040493857
79	0x3c31199f	0.010809331
80	0x3d9a53cf	0.075355165
81	0x3d9d17eb	0.076705776
82	0xbda89795	-0.08232037
83	0x3dfd734c	0.12375507
84	0x3d4c35df	0.049856063
85	0x3d58cdeb	0.052930754
86	0xbd9c7256	-0.07638995
87	0x3d97c7ab	0.074111305
88	0xbca736be	-0.020411845
89	0x3deec235	0.11658136
90	0x3daca3b8	0.084296644
91	0x3df38e6c	0.11892399
92	0xbcb6dcdb	-0.022322109
93	0x3ddad321	0.10684801
94	0x3e01821e	0.12647292
95	0x3d1569d4	0.03647788
96	0xbc29e493	-0.010369438
97	0xbddc0488	-0.10743052
98	0xbdadc6d9	-0.08485193
99	0x3dc1eef6	0.09469406
100	0xbdce6281	-0.10077382
101	0xbda5933d	-0.08084724
102	0x3dabb924	0.08384922
103	0xbdab1cd1	-0.08355106
104	0xbe0236b9	-0.12716188
105	0x3d15a693	0.03653581
106	0x3d914fbb	0.070952855
107	0xbe1899cb	-0.14902417
108	0x3cac2dab	0.02101787
109	0xbe01d264	-0.12677914
110	0x3d8e0d0b	0.069360815
111	0x3db82fe9	0.08993513
112	0x3d629635	0.05531903
113	0x3e246590	0.16054368
114	0xbd02b135	-0.03190728
115	0xbd85ee7f	-0.0653963
116	0x3d362fc9	0.044479165
117	0x3d4a1c53	0.04934342
118	0xbd967645	-0.07346777
119	0xbddda04f	-0.10821592
120	0xbd4d0548	-0.050053865
121	0x3d8ba852	0.06819214
122	0x3d8e4615	0.06946961
123	0xbd95197a	-0.0728025
124	0x3e0e624e	0.13904688
125	0xbdfa3d67	-0.12218743
126	0xbc9c4d51	-0.019079836
127	0x3d2472bd	0.040148485
