empirical/experiments/study_c_computational/trained_agents/simple_agent.pt (torch, 79764 bytes, 8 tensors)

actor_logstd f4 [5]
-0.19255619 -0.20131521 -0.0068085566 0.023373134 0.001000855
00000000: 732d 45be 9325 4ebe 501a dfbb 0479 bf3c
00000010: 1f2f 833a

shared.0.weight f4 [128, 12]
0.2561465 0.4874237 -0.19538237 0.282379 -0.040517185 0.047399018 -0.11204105 0.1378172
0.2718401 -0.18762344 0.20384783 0.087472215 0.2548228 -0.108252786 0.23014806 -0.0017907706
0.23194657 0.055322923 -0.11335143 0.05023899 -0.07349502 0.018059434 -0.13175756 0.19973524
-0.13720916 -0.24098656 0.061859827 -0.060606822 0.027127143 -0.29675856 0.25334153 -0.23950541
0.36504808 0.14856076 -0.10027424 0.26076737 0.11766861 0.4825597 -0.0854044 -0.023875615
0.054210518 -0.056648776 0.11200372 0.19444124 0.17507198 -0.06157633 0.15161872 0.06397547
0.1827099 -0.2898318 -0.17565559 -0.09021847 -0.22413443 0.23571356 0.046795327 0.12970324
0.123994604 0.03941513 0.27580586 -0.2704114 0.09845219 -0.400226 0.23607261 0.009315743
0.061217092 -0.038261954 0.23609263 -0.1743952 -0.05529408 -0.07719586 0.26187167 0.092105955
0.33228046 -0.35327956 -0.17302491 -0.19630378 -0.19247055 0.13474452 0.07678551 0.240631
-0.10325976 -0.13530768 0.20708276 -0.18284075 0.2532896 -0.08337315 0.19817325 -0.09310569
-0.12096954 0.10767804 0.047453307 -0.061201606 0.30812418 0.28863725 -0.21138467 -0.1816425
0.31190974 -0.27256823 0.024231127 -0.22882001 -0.12963365 0.092454374 -0.03328438 -0.20833056
0.052920226 -0.13345194 -0.23950228 -0.21606658 -0.15004863 -0.29676178 0.440023 0.20305033
0.075667664 -0.25269184 -0.18279439 -0.079221375 0.19444647 -0.13474855 -0.10219743 -0.15678118
0.0343341 -0.025779877 -0.1296914 -0.08872541 -0.1418898 -0.0887878 -0.08111011 -0.19207089
0.34969556 -0.02051463 0.17573448 0.10125596 -0.19320929 0.38514143 -0.13340835 -0.063421
-0.21788602 -0.28858402 0.12633786 -0.08880186 0.1288058 -0.1876185 0.17385869 -0.20971163
-0.019729076 -0.03392147 0.22146247 0.2803898 0.29223427 -0.25368878 0.05296844 -0.11388605
0.030454034 -0.1745625 0.2905137 -0.17903607 0.14502713 0.21199223 0.010015924 -0.15502383
0.24842662 0.06419172 0.0028110135 -0.24254785 0.1259348 -0.05575957 -0.091856405 0.24830687
0.14376695 -0.26530805 -0.03211081 0.09259688 0.16091605 -0.048767474 -0.16944851 -0.094756566
-0.106223404 0.19415498 0.296179 -0.34212843 0.09566399 0.055699993 0.118247546 -0.0705833
0.19487715 0.16393255 0.11073583 -0.054251775 -0.04406936 0.068208605 -0.073578484 -0.12647395
0.22688253 0.23699167 0.110975645 -0.057975724 0.0066510215 -0.01602144 0.083005436 0.09919743
-0.28516427 -0.060501788 0.2953113 0.08229751 -0.04173392 -0.23463693 -0.18332162 -0.30911866
-0.07624542 0.06352878 0.15233953 0.10076995 -0.27012122 -0.20094709 -0.053619064 0.28737625
0.10157854 -0.24846666 0.26376012 -0.04887482 -0.16073363 0.19573367 -0.12816978 -0.05918422
-0.22480145 0.26662385 0.2552059 0.061545156 -0.13219778 -0.3938517 -0.1248506 0.31075028
0.17684548 0.2934416 0.14876783 0.0447473 0.08633683 -0.13203374 -0.31184366 -0.3656717
0.20151691 -0.28379488 0.07481902 -0.07509962 -0.06263677 -0.16151011 -0.20461567 0.114097215
0.020516047 0.27215862 -0.04550568 -0.27218935 -0.03803921 -0.124246486 -0.094554305 -0.28260556
00000000: a225 833e 998f f93e 5112 48be fb93 903e
00000010: 59f5 25bd 7925 423d c775 e5bd f41f 0d3e
00000020: a02e 8b3e 5c20 40be 7cbd 503e a224 b33d
00000030: 2278 823e a3b3 ddbd efab 6b3e 4ab8 eaba
00000040: 6783 6d3e 4a9a 623d cb24 e8bd 66c7 4d3d
00000050: 8f84 96bd 61f1 933c 74eb 06be 6587 4c3e
00000060: 8f80 0cbe 2ec5 76be bb60 7d3d dc3e 78bd
00000070: be39 de3c bdf0 97be fbb5 813e e840 75be
00000080: 95e7 ba3e 5020 183e 955c cdbd 4d83 853e
00000090: 3dfc f03d 1112 f73e 81e8 aebd cb96 c3bc
000000a0: d90b 5e3d 8c08 68bd 3562 e53d 9b1b 473e
000000b0: 1246 333e 7637 7cbd f041 1b3e 9205 833d
000000c0: 4e18 3b3e d564 94be 0fdf 33be 76c4 b8bd
000000d0: 7f83 65be e55e 713e 75ac 3f3d edd0 043e
000000e0: e2f0 fd3d c271 213d 6d36 8d3e 5d73 8abe
000000f0: 4da1 c93d 6cea ccbe 05bd 713e 0fa1 183c
00000100: c6be 7a3d 91b8 1cbd 44c2 713e a894 32be
00000110: 0c7c 62bd dd18 9ebd 0b14 863e 0ca2 bc3d
00000120: aa20 aa3e 0fe1 b4be 712d 31be dc03 49be
00000130: 0017 45be 78fa 093e b941 9d3d f967 763e
00000140: da79 d3bd 198e 0abe 810d 543e 9b3a 3bbe
00000150: 2daf 813e 8bbf aabd eeed 4a3e 32ae bebd
00000160: e1be f7bd 4e86 dc3d 665e 423d 89ae 7abd
00000170: 74c2 9d3e 43c8 933e 3975 58be 7e00 3abe
00000180: a2b2 9f3e 108e 8bbe 5b80 c63c cb4f 6abe
00000190: afbe 04be b858 bd3d 3455 08bd 9b54 55be
000001a0: e1c2 583d a0a7 08be 1640 75be 8f40 5dbe
000001b0: 59a6 19be 29f1 97be b24a e13e 6dec 4f3e
000001c0: a6f7 9a3d d360 81be 742e 3bbe d13e a2bd
000001d0: fa1c 473e 86fb 09be e34c d1bd 3f8b 20be
000001e0: eaa1 0c3d 5230 d3bc d3cd 04be abb5 b5bd
000001f0: 8f4b 11be 61d6 b5bd 0f1d a6bd 3bae 44be
00000200: 4c0b b33e 4c0e a8bc bdf3 333e 495f cf3d
00000210: a8d8 45be 4231 c53e 339c 08be dfe2 81bd
00000220: 831d 5fbe 49c1 93be b65e 013e c0dd b5bd
00000230: abe5 033e 101f 40be 0308 323e a5be 56be
00000240: df9e a1bc 3df1 0abd 0fc7 623e 408f 8f3e
00000250: bb9f 953e 7fe3 81be 6ff5 583d 173d e9bd
00000260: bd7a f93c 83c0 32be 36be 943e 3b55 37be
00000270: fe81 143e 7e14 593e d519 243c 91be 1ebe
00000280: 8c63 7e3e f376 833d fb38 383b 775e 78be
00000290: 0df5 003e 2664 64bd 361f bcbd 2844 7e3e
000002a0: a537 133e 75d6 87be a086 03bd 6fa3 bd3d
000002b0: 2dc7 243e 67c0 47bd e983 2dbe bb0f c2bd
000002c0: a88b d9bd 90d0 463e c6a4 973e 752b afbe
000002d0: 7beb c33d ad25 643d c52b f23d fa8d 90bd
000002e0: e08d 473e efdd 273e 78c9 e23d 1c37 5ebd
000002f0: 1382 34bd f4b0 8b3d 51b0 96bd 6382 01be
00000300: e553 683e f2ad 723e 3347 e33d f477 6dbd
00000310: d0f0 d93b 653f 83bc c1fe a93d 0628 cb3d
00000320: 0d01 92be b9d0 77bd 0b33 973e 998b a83d
00000330: 30f1 2abd aa44 70be aab8 3bbe cd44 9ebe
00000340: 8f26 9cbd 611b 823d e5fe 1b3e 7a60 ce3d
00000350: 544d 8abe 13c5 4dbe aa9f 5bbd fb22 933e
00000360: 6908 d03d 0b6e 7ebe 910b 873e f730 48bd
00000370: 5b97 24be 686e 483e f03e 03be 276b 72bd
00000380: 5a32 66be ec82 883e 59aa 823e c616 7c3d
00000390: db5e 07be eea6 c9be acb1 ffbd a91a 9f3e
000003a0: fb16 353e fa3d 963e 9856 183e f248 373d
000003b0: 5dd1 b03d da33 07be f9a9 9fbe 5239 bbbe
000003c0: 735a 4e3e 904d 91be b73a 993d d4cd 99bd
000003d0: b547 80bd e862 25be c586 51be cdab e93d
000003e0: 4511 a83c 6058 8b3e 2a64 3abd 675c 8bbe
000003f0: 01cf 1bbd f174 febd b0a5 c1bd adb1 90be

shared.0.bias f4 [128]
0.066261776 -0.03670802 -0.048511617 -0.028198013 -0.058489613 0.37113786 0.17221336 0.37648204
0.14289026 0.18462813 0.15544981 0.098832704 -0.18503562 -0.18316166 0.021264417 0.041665833
0.15477791 0.0838047 0.3024319 0.14627193 -0.004577302 -0.2052367 -0.1620843 -0.16941847
0.14310667 0.19691265 0.29985285 -0.08318781 0.0017041828 -0.051353157 -0.011413653 0.09864018
0.022389444 0.071434386 0.04145058 0.14047197 0.019910716 -0.13040228 0.136021 0.011558459
-0.110445686 0.1779701 0.06933781 0.0569329 -0.11435021 0.020888876 -0.18510509 0.10672175
0.09197869 0.20374396 0.07249598 0.10757118 0.13681819 0.23200428 -0.084014975 0.24930768
0.10982292 -0.07808832 0.13551724 -0.17637904 -0.04891152 -0.084616475 -0.12802562 0.2813985
-0.15334366 0.22376499 -0.13364516 0.08183576 0.07655117 0.28125545 -0.009096975 0.03741715
0.09892963 0.2340169 0.02577568 0.17867212 -0.117193915 -0.236332 0.2930661 -0.21442416
0.038563907 0.061840948 0.3350002 -0.046984076 -0.22660425 -0.07317883 0.24004444 0.22451301
0.3128032 -0.007836002 0.13705505 -0.24848545 0.121821485 0.16770858 0.24649434 -0.08465809
-0.045503426 0.1756658 -0.1419665 -0.17096856 -0.28030616 0.08054368 0.22430022 0.09371047
0.038441967 0.17717974 -0.17023073 0.07754916 0.011848498 -0.0679377 0.27188706 -0.15356687
0.06471813 -0.26051104 -0.010026663 -0.045871776 0.17762257 -0.16210204 0.21501254 -0.17211623
0.21864015 -0.21716963 0.22553433 -0.11594967 0.03686517 -0.01442437 0.21779555 0.19085228
00000000: 41b4 873d 265b 16bd 1eb4 46bd 85ff e6bc
00000010: ce92 6fbd c805 be3e b358 303e 41c2 c03e
00000020: d351 123e 280f 3d3e 3c2e 1f3e cd68 ca3d
00000030: fa79 3dbe bb8e 3bbe b732 ae3c cba9 2a3d
00000040: 1a7e 1e3e cca1 ab3d 5bd8 9a3e 4fc8 153e
00000050: 31fd 95bb 9229 52be 6df9 25be 097c 2dbe
00000060: 8e8a 123e 78a3 493e 5086 993e 5f5e aabd
00000070: e35e df3a b057 52bd 5500 3bbc dd03 ca3d
00000080: 116a b73c 314c 923d 15c8 293d e2d7 0f3e
00000090: cc1b a33c 2d88 05be 1749 0b3e b15f 3d3c
000000a0: 5931 e2bd cb3d 363e fb00 8e3d 7932 693d
000000b0: 7130 eabd 261f ab3c 308c 3dbe ef90 da3d
000000c0: 535f bc3d 42a2 503e c678 943d 474e dc3d
000000d0: 111a 0c3e 8892 6d3e 0b10 acbd 834a 7f3e
000000e0: d7ea e03d c5ec 9fbd 08c5 0a3e b59c 34be
000000f0: 7257 48bd 674b adbd 2619 03be 7713 903e
00000100: 1f06 1dbe a622 653e 47da 08be 8299 a73d
00000110: dcc6 9c3d b700 903e 7b0b 15bc ba42 193d
00000120: 9e9b ca3d 20a2 6f3e 8527 d33c d3f5 363e
00000130: 5d03 f0bd 0401 72be c30c 963e 0292 5bbe
00000140: 30f5 1d3d ef4c 7d3d 2585 ab3e 6072 40bd
00000150: f20a 68be c8de 95bd 36ce 753e bde6 653e
00000160: be27 a03e 9362 00bc 2958 0c3e f872 7ebe
00000170: 8b7d f93d ccbb 2b3e 0369 7c3e 3861 adbd
00000180: cd61 3abd bce1 333e ab5f 11be 6212 2fbe
00000190: 4a84 8fbe 16f4 a43d f5ae 653e 46eb bf3d
000001a0: 5375 1d3d 9b6e 353e f750 2ebe 18d2 9e3d
000001b0: 3420 423c ec22 8bbd c834 8b3e a240 1dbe
000001c0: f08a 843d b461 85be df46 24bc 0be4 3bbd
000001d0: b1e2 353e 14fe 25be 3f2c 5c3e 3d3f 30be
000001e0: 34e3 5f3e b761 5ebe 79f2 663e 0577 edbd
000001f0: efff 163d 3154 6cbc cc05 5f3e c86e 433e

shared.2.weight f4 [128, 128]
-0.049969204 -0.011098482 -0.13603796 0.15487099 0.015397841 -0.10648317 -0.041549265 0.0096282605
-0.1084004 -0.050026882 0.010292236 0.08483923 0.01243835 -0.07756608 0.039376568 -0.009966853
0.037428357 -0.018599888 0.037334763 -0.0104510505 -0.018577922 -0.031374328 -0.036754914 -0.047781415
-0.10250295 0.023482375 -0.069059566 -0.045664806 0.077580035 0.0989776 -0.06300243 -0.05266454
0.081804246 0.01545885 -0.00013931449 -0.059007104 0.0556388 0.027179616 0.14744815 -0.0058561894
0.033627074 0.025697917 0.13219844 -0.085389465 -0.0055238763 0.078622796 0.114185594 0.053795
0.054683942 -0.0054232343 0.09957397 0.009709445 -0.029947435 -0.01918451 -0.017685534 0.044165168
0.025287587 0.11964283 -0.030068783 -0.035881177 -0.052721854 0.07019198 0.06992904 -0.047733683
0.09675934 -0.09350285 -0.10264247 -0.0026331781 0.08074915 -0.054104436 -0.11893344 0.048821233
0.05837548 -0.045937147 -0.03678427 0.050356213 -0.0007083659 0.034264933 -0.030941015 0.07443986
0.13417658 0.0061895764 0.010609605 0.1050257 0.0015781738 0.018817618 0.00065877667 0.016186351
-0.037020445 0.100956134 0.048590332 0.031144755 0.07882458 -0.06500911 0.08771041 -0.023729792
-0.04214859 0.021653675 -0.13528438 0.04045383 -0.08870875 0.032834936 -0.037772235 0.08253447
0.060404316 0.11002166 0.06974556 -0.008605401 -0.10371372 -0.045959495 0.08534766 0.089224055
-0.06960817 -0.052709095 -0.019043025 -0.12653697 -0.010056764 -0.014401083 -0.054241635 -0.055545516
0.012113717 0.02178675 -0.014449343 0.022638846 -0.07552725 -0.07126248 0.015354636 -0.11459096
0.02956129 0.060815677 -0.07835096 0.11193617 -0.013306467 -0.17394426 0.07126218 0.015613598
-0.07682929 -0.19951107 0.067269675 0.08138066 -0.027658064 0.02153514 -0.09894903 0.06300708
0.16950586 -0.053011622 -0.023622226 -0.17159486 -0.09227638 0.0013604343 0.1133857 0.038218282
-0.016979659 -0.024328766 -0.06792733 0.07533355 -0.051935457 0.098665446 0.0040667113 0.05881546
0.1880475 -0.0499053 0.085444495 -0.08708304 0.17157814 0.044253428 0.1778569 0.06873415
0.04247501 -0.04059543 0.20253175 -0.09108979 -0.00595741 0.063737996 0.16268389 -0.076174974
0.09498029 0.044543084 0.17028104 0.08045487 -0.11308959 0.01506214 -0.057390027 0.16732803
0.1614904 0.08361421 0.15339243 -0.011760913 0.04680924 0.15043086 0.00865179 0.12600037
0.060466234 -0.09730474 -0.17996149 -0.036780067 0.13222438 -0.100309126 -0.11090314 0.12149492
0.022982638 0.091481276 0.013345886 0.052442756 0.058247022 0.07723304 0.06060686 0.102453165
0.15905079 -0.02195147 -0.11610791 0.01364361 -0.07273192 0.027211785 -0.10534624 -0.09287828
-0.03787063 0.017181939 0.074365966 0.102570064 0.09206408 0.009550538 0.078827105 -0.1196997
0.11083095 0.11435618 0.013168226 0.12665452 -0.05197543 0.09654165 -0.08209234 0.059949126
0.02963241 0.10213567 0.078327216 0.047336392 -0.05912018 -0.13671945 0.0010697156 0.12659542
0.026129184 0.07918018 0.025413916 -0.0858117 -0.14885765 0.003829842 0.013707214 -0.1016722
0.068614244 -0.056585047 -0.13692772 0.020536808 0.047026407 0.023097165 0.16190468 -0.11526952
00000000: 82ac 4cbd 68d6 35bc 894d 0bbe 8096 1e3e
00000010: 3a47 7c3c d913 dabd 902f 2abd dabf 1d3c
00000020: 0701 debd fde8 4cbd c4a0 283c 31c0 ad3d
00000030: 39ca 4b3c f7da 9ebd 5349 213d 034c 23bc
00000040: 7a4e 193d cb5e 98bc 56ec 183d e23a 2bbc
00000050: ba30 98bc 5e82 00bd 528c 16bd 72b6 43bd
00000060: 11ed d1bd 1c5e c03c 1a6f 8dbd 050b 3bbd
00000070: 48e2 9e3d c5b4 ca3d 6b07 81bd c6b6 57bd
00000080: fc88 a73d 1e47 7d3c f314 12b9 6fb1 71bd
00000090: 83e5 633d c9a7 de3c a6fc 163e 47e5 bfbb
000000a0: 8bbc 093d 7084 d23c 075f 073e ace0 aebd
000000b0: a201 b5bb fd04 a13d 23da e93d 2558 5c3d
000000c0: 45fc 5f3d 63b5 b1bb 70ed cb3d 5d14 1f3c
000000d0: 5354 f5bc d528 9dbc 41e1 90bc 89e6 343d
000000e0: ea27 cf3c 4d07 f53d cf52 f6bc 24f8 12bd
000000f0: dff2 57bd d0c0 8f3d f536 8f3d 6584 43bd
00000100: c329 c63d 6c7e bfbd 3736 d2bd 6691 2cbb
00000110: cf5f a53d 9d9c 5dbd 6093 f3bd c6f8 473d
00000120: 211b 6f3d 9728 3cbd 1aab 16bd 5142 4e3d
00000130: a1b1 39ba 6359 0c3d 0378 fdbc ed73 983d
00000140: 9665 093e eed1 ca3b e9d3 2d3c b717 d73d
00000150: bada ce3a 6827 9a3c c1b1 2c3a 3d99 843c
00000160: c0a2 17bd 17c2 ce3d a806 473d 4923 ff3c
00000170: c86e a13d 7f23 85bd 84a1 b33d fb64 c2bc
00000180: 00a4 2cbd 0c63 b13c fd87 0abe eab2 253d
00000190: efac b5bd ed7d 063d 0fb7 1abd d507 a93d
000001a0: 846a 773d 0953 e13d c3d6 8e3d abfd 0cbc
000001b0: dc67 d4bd 0640 3cbd c1ca ae3d 1abb b63d
000001c0: ba8e 8ebd 7ee5 57bd 1e00 9cbc e892 01be
000001d0: 20c5 24bc 85f2 6bbc 7a2c 5ebd b283 63bd
000001e0: 9d78 463c 207a b23c f0bc 6cbc 1a75 b93c
000001f0: 08ae 9abd 10f2 91bd 0392 7b3c aaae eabd
00000200: 852a f23c dc19 793d 7876 a0bd ca3e e53d
00000210: 5e03 5abc 721e 32be e8f1 913d 2dd0 7f3c
00000220: ad58 9dbd a14c 4cbe afc4 893d e7aa a63d
00000230: 2a93 e2bc 766a b03c caa5 cabd db09 813d
00000240: f292 2d3e b722 59bd 6683 c1bc 90b6 2fbe
00000250: 66fb bcbd 9a50 b23a c336 e83d c68a 1c3d
00000260: ed18 8bbc 1f4d c7bc 7c1d 8bbd 7a48 9a3d
00000270: 46ba 54bd 1c11 ca3d 0c42 853b 7be8 703d
00000280: 868f 403e 8069 4cbd 86fd ae3d 9858 b2bd
00000290: 2eb2 2f3e 1543 353d 1f20 363e 7dc4 8c3d
000002a0: 47fa 2d3d 6547 26bd 7c64 4f3e 498d babd
000002b0: 6136 c3bb 1189 823d 9b96 263e a001 9cbd
000002c0: 0785 c23d cf72 363d 275e 2e3e 86c5 a43d
000002d0: 849b e7bd 32c7 763c ce11 6bbd 0a58 2b3e
000002e0: bd5d 253e ed3d ab3d e812 1d3e d8b0 40bc
000002f0: 0cbb 3f3d 8c0a 1a3e 3dc0 0d3c 3e06 013e
00000300: 71ab 773d b547 c7bd d347 38be b2a6 16bd
00000310: d465 073e df6e cdbd 2f21 e3bd 54d2 f83d
00000320: 1646 bc3c 895a bb3d b4a8 5a3c 37ce 563d
00000330: 6e94 6e3d 5b2c 9e3d e63e 783d f7d2 d13d
00000340: 36de 223e 92d3 b3bc fcc9 edbd 7389 5f3c
00000350: 79f4 94bd 40eb de3c c5bf d7bd f836 bebd
00000360: 3c1e 1bbd 23c1 8c3c 2f4d 983d 4110 d23d
00000370: 188c bc3d dc79 1c3c 1b70 a13d 1e25 f5bd
00000380: 56fb e23d 9333 ea3d 8bbf 573c b9b1 013e
00000390: 30e4 54bd a1b7 c53d 0720 a8bd 378d 753d
000003a0: abbf f23c 822c d13d 056a a03d cee3 413d
000003b0: 0028 72bd 2f00 0cbe b335 8c3a 3ba2 013e
000003c0: df0c d63c 3829 a23d d830 d03c 0bbe afbd
000003d0: 246e 18be 16fe 7a3b 3994 603c 8439 d0bd
000003e0: a085 8c3d b9c5 67bd c836 0cbe cf3c a83c
000003f0: c39e 403d 4436 bd3c 57ca 253e 6d12 ecbd

shared.2.bias f4 [128]
-0.0044301855 0.025917081 0.08143259 0.10537235 -0.010625605 0.11018451 0.016787555 0.006436299
-0.017313836 -0.043644506 0.1099731 0.0743524 -0.023820357 -0.08635755 0.10250753 0.06089018
-0.026692007 0.04313299 0.00034994798 0.015010135 -0.024154833 -0.041355405 -0.06050395 0.008541071
0.040421776 0.060712077 0.03516212 0.07419479 0.03311674 -0.0445791 -0.03170091 -0.03620158
-0.0068336474 -0.0183973 0.09755994 -0.078475624 0.08587489 0.07306917 0.08690067 0.06696187
0.06267044 0.092777334 0.022535346 0.002862174 0.07463121 0.030978572 -0.047211323 0.043483805
0.13936199 0.10698604 -0.017831272 0.02954426 0.0648723 0.06548073 -0.03425302 0.054148376
-0.02743481 0.11301444 0.071877636 -0.044788554 0.02104972 0.11295174 0.014395144 0.0023219378
0.07198611 -0.047150314 -0.0018635307 -0.09227705 -0.031007135 0.049733292 -0.010188932 0.036422186
-0.02417067 0.07871243 -0.04065075 0.045478385 -0.0016018484 0.07380204 0.052508757 0.025588885
-0.027869606 -0.0041095684 0.10184137 -0.030086793 0.10485842 0.040517673 -0.03722716 -0.026382955
0.07844741 0.0050791414 0.033934705 0.044007197 0.11974593 -0.03108268 0.023025403 0.08104747
-0.036771726 0.010553686 0.00020053193 0.12568554 0.033656508 -0.0880871 0.07140931 0.095812485
0.09071094 0.11859368 0.013326032 0.05102368 0.11835246 0.12545021 0.022503681 0.029760431
0.035817448 0.1096465 0.012600331 0.048235636 0.051571388 0.024139462 -0.0072562867 0.10052792
-0.02756973 0.077314034 0.015456767 -0.050036885 -0.007406144 0.013587606 0.0725952 -0.012424943
00000000: 172b 91bb 0f50 d43c 21c6 a63d 75cd d73d
00000010: 0417 2ebc 6ba8 e13d 0e86 893c 97e7 d23b
00000020: bfd5 8dbc 95c4 32bd 9439 e13d 1246 983d
00000030: e922 c3bc 3adc b0bd 78ef d13d fb67 793d
00000040: 32a9 dabc 38ac 303d 3979 b739 12ed 753c
00000050: 5be0 c5bc 4964 29bd fdd2 77bd d9ef 0b3c
00000060: 4e91 253d 3aad 783d 2806 103d 70f3 973d
00000070: 6ba5 073d 9398 36bd d0d8 01bd 1c48 14bd
00000080: caec dfbb efb5 96bc 81cd c73d d4b7 a0bd
00000090: 2ddf af3d 4aa5 953d faf8 b13d 4e23 893d
000000a0: 5c59 803d 0b02 be3d 0c9c b83c 5093 3b3b
000000b0: 3fd8 983d c6c6 fd3c a960 41bd 131c 323d
000000c0: e9b4 0e3e 7f1b db3d e312 92bc ce06 f23c
000000d0: c5db 843d c31a 863d e54c 0cbd b0ca 5d3d
000000e0: f7be e0bc 1d74 e73d 9534 933d 3474 37bd
000000f0: 7670 ac3c 3e53 e73d 9cd9 6b3c a72b 183b
00000100: 746d 933d b020 41bd b741 f4ba c0fb bcbd
00000110: ad02 febc 23b5 4b3d 7aef 26bc 6e2f 153d
00000120: 9201 c6bc fc33 a13d 6781 26bd 8b47 3a3d
00000130: 1df5 d1ba 8625 973d 6c13 573d c89f d13c
00000140: cd4e e4bc 8fa9 86bb 3592 d03d 9478 f6bc
00000150: 03c0 d63d dcf5 253d 827b 18bd 1121 d8bc
00000160: 09a9 a03d ed6e a63b 1eff 0a3d e440 343d
00000170: 5b3d f53d 1ba1 febc c59f bc3c 37fc a53d
00000180: f39d 16bd 5ee9 2c3c e145 5239 b6b3 003e
00000190: 68db 093d 0267 b4bd 0b3f 923d 5639 c43d
000001a0: a8c6 b93d 3ee1 f23d 6e55 5a3c 35fe 503d
000001b0: c662 f23d 0576 003e a459 b83c 26cc f33c
000001c0: 51b5 123d 588e e03d 9e71 4e3c bb92 453d
000001d0: 853c 533d 1fc0 c53c 25c6 edbb 95e1 cd3d
000001e0: ead9 e1bc d256 9e3d 613e 7d3c 7af3 4cbd
000001f0: 3daf f2bb 8d9e 5e3c cbac 943d fd91 4bbc

actor_mean.weight f4 [5, 128]
0.03663441 -0.006371525 0.038630772 0.0760787 0.057085484 0.072341256 -0.0709753 -0.07432412
0.057131715 0.08336086 0.037674148 0.033178784 0.0031443085 0.032987975 -0.044870246 -0.0052555506
0.082916066 -0.048518606 -0.07068618 0.06247281 0.03737361 -0.08220434 0.07165307 0.003790833
0.0060341987 0.030811477 0.033501126 -0.02039285 -0.1001013 0.06526225 -0.042459454 -0.057639822
0.023002248 0.059406985 0.0019285808 -0.042218816 -0.077941746 0.034770243 0.021988379 0.04579629
0.0767326 -0.0511668 0.022001145 0.08473992 -0.00052686443 -0.037810404 -0.064596266 -0.018243782
-0.0480608 -0.07852916 -0.08960766 0.020511402 -0.01080577 0.028358568 0.04661533 -0.10122088
-0.02677938 0.070583485 -0.032841302 0.055342544 -0.094713084 0.06682282 0.027084418 -0.067700766
0.024964504 0.054097094 0.06388324 0.027957551 -0.030313566 -0.032078665 -0.05824914 0.081789955
0.01127263 0.012988793 -0.048151825 -0.075360216 -0.019398043 0.029111154 0.05308499 -0.013016004
0.035985608 -0.018025523 -0.02508805 0.07350119 0.025516864 0.10465345 -0.13742408 -0.0035906353
-0.044621676 0.0659424 0.026139865 0.0055805515 0.047912035 -0.042060744 -0.030940514 0.026043247
-0.055218436 0.005222341 0.01282726 -0.07024592 -0.04265542 -0.08879403 -0.09301805 -0.03946187
0.03532491 0.013435971 0.037533388 0.009284078 -0.06199115 -0.08367897 0.07628237 -0.0043165307
0.05243592 -0.09384659 -0.049464967 0.001787402 0.059362736 -0.07982226 -0.044992898 -0.08212865
0.024430146 -0.015783131 -0.042826135 0.0554332 -0.043186266 -0.006348118 -0.052568294 -0.019743258
-5.9005906e-06 0.017225962 0.098803654 -0.058633685 -0.040806435 0.024450015 0.0037092757 0.09886295
0.05885074 0.11456655 0.08787595 0.0351346 0.09503941 -0.004645072 0.0788075 0.04705261
0.064845204 0.06611322 -0.016878946 0.073599204 0.07603864 -0.021361234 -0.027383856 -0.061230272
0.06386785 -0.063314006 -0.08468855 0.070787415 0.042047426 0.07468996 -0.07681078 -0.015914572
-0.011622834 0.054642335 -0.027447775 -0.10779654 -0.01498792 -0.02918201 0.097634174 0.045949496
-0.0658421 -0.023631416 -0.00479552 -0.034231897 -0.04035546 0.10777754 -0.054371852 0.067461826
-0.008655493 -0.057591144 -0.022353536 -0.040565986 -0.041454054 -0.054317277 0.007744861 0.0073341033
0.06276651 -0.067899555 -0.0065639005 0.055232804 -0.0484228 -0.013542288 -0.05562629 -0.08948143
0.044173304 0.061974 0.02943619 0.0811853 -0.0061460724 -0.052392565 -0.07318942 0.010817296
-0.031477056 0.1157865 -0.0069569233 0.096267685 -0.011202989 -0.033275403 -0.07517698 0.07960565
-0.052115135 0.05814816 -0.0010345003 -0.035539817 -0.008000165 0.054274306 0.09317297 -0.04762432
-0.06745717 0.048775077 0.041637972 -0.031291828 0.05964762 0.024552256 -0.057577133 0.059590403
-0.05976166 0.034610268 0.01443292 -0.026854647 -0.0055760588 -0.089123026 0.098142125 -0.051656008
0.08559722 0.010840281 0.008883588 0.014965243 -0.01618488 0.0051627466 0.10595713 -0.018288411
0.04525604 -0.06648448 -0.020329064 0.097546265 0.03804294 -0.04576323 -0.040336322 0.08238069
-0.009048491 0.11548736 -0.06616891 0.032848388 -0.047075566 0.03407304 -0.02997545 -0.009376441
00000000: f70d 163d 3ac8 d0bb 4d3b 1e3d 26cf 9b3d
00000010: 78d2 693d a727 943d 805b 91bd 3f37 98bd
00000020: f202 6a3d 19b9 aa3d 3550 1a3d 7ae6 073d
00000030: be10 4e3b 661e 073d ddc9 37bd c136 acbb
00000040: e6cf a93d 72bb 46bd eac3 90bd 7de3 7f3d
00000050: 1215 193d c05a a8bd d8be 923d a06f 783b
00000060: 87ba c53b 5a68 fc3c 7a38 093d e80e a7bc
00000070: e901 cdbd 37a8 853d f7e9 2dbd bc17 6cbd
00000080: 366f bc3c bd54 733d 6fc8 fc3a a3ed 2cbd
00000090: ec9f 9fbd 3e6b 0e3d f920 b43c e494 3b3d
000000a0: fb25 9d3d 4794 51bd bf3b b43c 208c ad3d
000000b0: 461d 0aba 15df 1abd 0c4b 84bd fc73 95bc
000000c0: 67db 44bd e5d3 a0bd 3984 b7bd 8707 a83c
000000d0: af0a 31bc 3a50 e83c b7ef 3e3d e54c cfbd
000000e0: 6e60 dbbc 138e 903d 9a84 06bd ddae 623d
000000f0: eff8 c1bd 67da 883d 24e0 dd3c b3a6 8abd
00000100: 5c82 cc3c ea94 5d3d 37d5 823d 3c07 e53c
00000110: 2854 f8bc eb64 03bd a696 6ebd 7e81 a73d
00000120: d6b0 383c f2ce 543c d93a 45bd 7556 9abd
00000130: a5e8 9ebc 847a ee3c a56f 593d 1441 55bc
00000140: a565 133d 43aa 93bc 7485 cdbc cb87 963d
00000150: be08 d13c 8c54 d63d e6b8 0cbe dd50 6bbb
00000160: 38c5 36bd cf0c 873d 4523 d63c 0fdd b63b
00000170: 693f 443d e347 2cbd f676 fdbc a658 d53c
00000180: ba2c 62bd 2c20 ab3b 6e29 523c 18dd 8fbd
00000190: 73b7 2ebd a5d9 b5bd 3f80 bebd c5a2 21bd
000001a0: dab0 103d 8c22 5c3c 9cbc 193d 3f1c 183c
000001b0: 6fea 7dbd e15f abbd ee39 9c3d af71 8dbb
000001c0: 0cc7 563d a432 c0bd c79b 4abd 4247 ea3a
000001d0: 5726 733d da79 a3bd 794a 38bd 1133 a8bd
000001e0: bb21 c83c a04b 81bc 756a 2fbd ec0d 633d
000001f0: 15e4 30bd e003 d0bb da51 57bd 9dbc a1bc
00000200: b0fd c5b6 761d 8d3c 9259 ca3d e029 70bd
00000210: a624 27bd 664b c83c 5217 733b a978 ca3d
00000220: 790d 713d dea1 ea3d 4ef8 b33d 4ce9 0f3d
00000230: 06a4 c23d b035 98bb d465 a13d 3dba 403d
00000240: 90cd 843d 5e66 873d b745 8abc 2ebb 963d
00000250: 26ba 9b3d c1fd aebc 1c54 e0bc 98cc 7abd
00000260: 26cd 823d c6aa 81bd 3171 adbd fef8 903d
00000270: ec39 2c3d 0df7 983d f84e 9dbd 475f 82bc
00000280: b36d 3ebc a4d0 5f3d 28da e0bc 6fc4 dcbd
00000290: e58f 75bc 1c0f efbc 6df4 c73d 8a35 3c3d
000002a0: 39d8 86bd ac96 c1bc bd23 9dbb bf36 0cbd
000002b0: c44b 25bd 79ba dc3d 05b5 5ebd 6d29 8a3d
000002c0: c5cf 0dbc b1e4 6bbd c31e b7bc 8528 26bd
000002d0: bacb 29bd cb7b 5ebd 9ac8 fd3b eb52 f03b
000002e0: ba8b 803d ec0e 8bbd fd15 d7bb cb3b 623d
000002f0: fc56 46bd 79e0 5dbc 65d8 63bd 0a42 b7bd
00000300: 11ef 343d 73d8 7d3d 2a24 f13c 7b44 a63d
00000310: fe64 c9bb 9699 56bd 56e4 95bd 073b 313c
00000320: 16ee 00bd 7921 ed3d e7f6 e3bb fe27 c53d
00000330: be8c 37bc ca4b 08bd 63f6 99bd 4908 a33d
00000340: ae76 55bd c42c 6e3d 1298 87ba 3392 11bd
00000350: 2013 03bc bc4e 5e3d 78d1 be3d b811 43bd
00000360: fc26 8abd 60c8 473d 948c 2a3d dc2b 00bd
00000370: 1051 743d d021 c93c 00d6 6bbd 1115 743d
00000380: a4c8 74bd 7fc3 0d3d 0e78 6c3c 47fe dbbc
00000390: 5fb7 b6bb 2286 b6bd bdfe c83d 4095 53bd
000003a0: 984d af3d 6f9b 313c 788c 113c c730 753c
000003b0: 2796 84bc 422c a93b 0d00 d93d 94d1 95bc
000003c0: 665e 393d 0429 88bd 2389 a6bc 56c6 c73d
000003d0: ead2 1b3d 3a72 3bbd b337 25bd 35b7 a83d
000003e0: 1f40 14bc a384 ec3d 9183 87bd 088c 063d
000003f0: 4fd2 40bd 2c90 0b3d 138f f5bc a59f 19bc

actor_mean.bias f4 [5]
0.06530022 0.044327617 -0.055372737 -0.017160827 -0.05975632
00000000: 1fbc 853d e090 353d 86ce 62bd dd94 8cbc
00000010: 0bc3 74bd

critic.weight f4 [1, 128]
0.13813365 0.23051801 -0.10857409 -0.18481305 -0.05250693 -0.18023829 -0.19035648 0.22393261
0.13596241 -0.17723371 -0.16416109 -0.2017681 -0.18851222 0.029391501 -0.17291889 -0.21186133
-0.11949839 -0.13737576 -0.18175805 -0.01579267 -0.037368093 0.011544254 0.025764024 -0.1447361
-0.18918583 0.22510573 0.1878217 0.22903791 0.21851529 0.07028316 0.16390988 -0.19963397
0.1813916 -0.067589775 -0.16079615 0.12986274 -0.12528835 -0.15860584 0.25597888 0.1714226
0.15258269 -0.11731425 0.023309477 -0.11923845 -0.14152421 -0.13992989 0.06118536 -0.12565096
-0.14057742 0.18987337 0.19585869 0.17710516 -0.14158408 0.20552549 -0.18696925 -0.16703348
-0.0852078 -0.16072136 0.2233432 0.050634693 0.20529138 0.19836901 0.20827658 0.043512918
0.0541831 -0.16781065 0.072957724 0.047988594 0.02335697 -0.118761025 0.07076588 -0.010301817
-0.21723953 -0.17511767 0.011757896 0.021592679 0.17749488 0.027871164 0.26918185 0.053462904
-0.17248003 -0.012997182 -0.13636637 -0.11412276 -0.16792105 0.032277547 0.048728086 -0.19404764
0.15592034 0.19456007 -0.03663002 -0.1576755 -0.14510767 -0.21894711 -0.19115439 0.2171183
-0.0103980815 -0.101375684 -0.06677469 -0.19331917 -0.02333672 -0.070848264 0.20964834 -0.13933448
-0.15721016 0.19027883 -0.17081176 -0.18763892 -0.14193968 -0.15666832 -0.20358697 -0.14253844
0.16709162 0.18176173 -0.16368327 -0.20158936 0.2012828 -0.17435293 -0.18142362 -0.16849034
0.13508375 -0.008315562 0.25582904 -0.15650646 -0.20090078 0.080747716 0.20628543 -0.07823293
00000000: e872 0d3e ea0c 6c3e 185c debd a23f 3dbe
00000010: 8211 57bd 6390 38be cfec 42be 974e 653e
00000020: bb39 0b3e c17c 35be d819 28be 4c9c 4ebe
00000030: 5909 41be 72c6 f03c a611 31be 2df2 58be
00000040: 92bb f4bd 3bac 0cbe c81e 3abe a15f 81bc
00000050: 490f 19bd 1c24 3d3c 130f d33c b335 14be
00000060: eeb9 41be 1e82 663e 5554 403e ea88 6a3e
00000070: 79c2 5f3e 9ef0 8f3d fed7 273e d96c 4cbe
00000080: b8be 393e 826c 8abd bfa7 24be bdfa 043e
00000090: 974b 00be 9269 22be aa0f 833e 6889 2f3e
000000a0: a33e 1c3e 7442 f0bd 84f3 be3c 4a33 f4bd
000000b0: b9eb 10be c849 0fbe 809d 7a3d a5aa 00be
000000c0: 87f3 0fbe 2a6e 423e 2e8f 483e 0e5b 353e
000000d0: 6bfb 10be 4675 523e de74 3fbe d30a 2bbe
000000e0: 6d81 aebd 2494 24be 14b4 643e 5366 4f3d
000000f0: e737 523e 3f21 4b3e 7546 553e 9a3a 323d
00000100: 19ef 5d3d 8ed6 2bbe dc6a 953d b08f 443d
00000110: 1e57 bf3c fb38 f3bd b4ed 903d f4c8 28bc
00000120: 0a74 5ebe 0c52 33be 31a4 403c 21e3 b03c
00000130: 38c1 353e 1152 e43c 34d2 893e ebfb 5a3d
00000140: 9b9e 30be 22f2 54bc a0a3 0bbe 32b9 e9bd
00000150: 7ff3 2bbe 7635 043d 1a97 473d 6db4 46be
00000160: 95a9 1f3e c13a 473e 5c09 16bd b075 21be
00000170: 1b97 14be ac33 60be fabd 43be 4254 5e3e
00000180: b75c 2abc 0e9e cfbd 2bc1 88bd 76f5 45be
00000190: a62c bfbc e518 91bd 0eae 563e b3ad 0ebe
000001a0: b3fb 20be 74d8 423e 47e9 2ebe 6b24 40be
000001b0: a358 11be a96d 20be 1a79 50be 99f5 11be
000001c0: 111a 2b3e bf1f 3a3e 969c 27be 716d 4ebe
000001d0: 141d 4e3e 9389 32be 1dc7 39be bb88 2cbe
000001e0: 6553 0a3e ff3d 08bc 06fc 823e 3b43 20be
000001f0: efb8 4dbe 0f5f a53d 7d3c 533e 9638 a0bd
