empirical/experiments/study_c_computational/trained_agents/world_model_agent.pt (torch, 135510 bytes, 16 tensors)

actor_logstd f4 [5]
000000 07 86 1a be 4d 16 33 be 72 b5 a2 3c ee a7 00 3d
       -0.1509019 -0.17488976 0.01986191 0.03141015
000010 81 65 e9 3c
       0.028490784

encoder.0.weight f4 [128, 12]
000000 44 e1 8d 3e db 58 e0 3e 79 84 d4 bd af 3a 8e 3e
       0.27710927 0.4381779 -0.1037683 0.27779147
000010 0f bc c9 bd 15 2e a3 3d 28 87 13 be b2 00 30 3e
       -0.098503225 0.07967774 -0.14407027 0.17187765
000020 bc 27 6f 3e dc 8c 28 be 79 aa 87 3e a6 4d 92 3d
       0.23355001 -0.16459984 0.26497248 0.071437165
000030 58 c7 93 3e 48 12 1c be b5 e8 93 3e f2 47 05 3d
       0.28863025 -0.15241349 0.2888848 0.032539316
000040 34 92 5a 3e 06 82 f6 3c 2b c5 f1 bd d6 5b a4 3d
       0.21344835 0.030091297 -0.11805185 0.08025329
000050 1f 84 59 bd 6f 8a 5d 3d 90 e3 f8 bd d1 11 3a 3e
       -0.053104516 0.0540871 -0.12152779 0.18170859
000060 3a c7 38 be 1b a5 7a be 8d c0 fb 3c c6 d8 00 be
       -0.18044749 -0.24477045 0.030731464 -0.12582693
000070 8b 14 ba 3c 74 e1 a0 be ab b8 8e 3e 7c 36 83 be
       0.022714874 -0.31422007 0.27875265 -0.25627506
000080 09 8a 90 3e ee 7a d7 3d ca 95 f7 bd c0 52 66 3e
       0.28230312 0.10521494 -0.12089117 0.22492504
000090 42 c6 03 3d 29 8b a3 3e 9b 6f 3b 3d cd dd d9 bd
       0.032171495 0.31942108 0.045760732 -0.10638008
0000a0 6f eb 4a 3d 64 93 24 bd a9 00 5d 3e 93 f3 a0 3e
       0.049540933 -0.040179625 0.21582283 0.31435832
0000b0 43 90 da 3d 30 09 0c be 7d 3c 0e 3e 85 f9 d1 3d
       0.10672047 -0.1367538 0.13890262 0.1025267
0000c0 0c 7f 35 3e 37 9b 76 bd d2 f3 90 be fb 3e c8 bd
       0.17724246 -0.06020662 -0.2831102 -0.097776376
0000d0 50 65 83 be 59 ba 81 3e cb d2 f2 3d cf 37 e6 3d
       -0.25663233 0.25337484 0.11856612 0.112411134
0000e0 6d 89 bd 3d 6c 4f d5 3c 9e 5e 5f 3e d5 28 23 be
       0.092547275 0.026038848 0.21813437 -0.15933545
0000f0 87 e4 f0 3d ee 0f d3 be 7d 0b 8c 3e e7 e1 64 bc
       0.11762338 -0.4122309 0.27352515 -0.013969875
000100 35 90 80 3d c7 0a 00 bd 5b 83 6d 3e f8 b3 30 be
       0.06277505 -0.031260278 0.2319464 -0.17256153
000110 91 87 b2 bd 73 55 6d bd df ec 93 3e d9 4e a1 3d
       -0.087172635 -0.05794282 0.28891656 0.07876367
000120 d0 8a b6 3e 02 fa c9 be a9 65 11 be 1e 5b 36 be
       0.3565278 -0.39448553 -0.14198937 -0.17808196
000130 77 a6 35 be 96 0b f1 3d 64 82 ce 3d e0 73 80 3e
       -0.17739283 0.11769788 0.10083464 0.25088406
000140 8e d6 a6 bd 51 b9 e0 bd 03 ba 45 3e e1 d9 2f be
       -0.08146392 -0.10972846 0.19309239 -0.17172958
000150 df a8 66 3e 1f 22 9c be 29 34 b0 3e 20 6b 37 be
       0.22525357 -0.30494782 0.34414795 -0.17911959
000160 91 5d 1c be e5 ca c2 3d 81 24 88 3d 7f ad 94 bd
       -0.15270068 0.09511355 0.066475876 -0.07259654
000170 d8 71 50 3e d6 df 86 3e 44 41 3d be 5d c8 35 be
       0.20355928 0.26342648 -0.18481928 -0.17752214
000180 9d 76 ab 3e 0b 69 90 be eb 92 5b 3d bf 91 5d be
       0.33488932 -0.2820514 0.05360691 -0.21637629
000190 da 6a 18 be df 23 5e 3d af 78 d4 bc 08 05 60 be
       -0.1488451 0.054233428 -0.025936453 -0.2187692
0001a0 3f 1e 94 3d b8 7f eb bd ad d5 71 be bf 79 20 be
       0.072323315 -0.1149897 -0.23616667 -0.15671442
0001b0 2a f1 21 be e5 6d 99 be 7a 63 d7 3e 5f b0 44 3e
       -0.15814653 -0.29966655 0.42068082 0.19207905
0001c0 78 2e 9b 3d 9e 1d 9f be 75 5c 2d be 6c 15 ad bd
       0.075772226 -0.31077284 -0.16929801 -0.084513515
0001d0 56 a6 35 3e 98 8e 10 be 38 ba 11 be b4 ed 3c be
       0.17739233 -0.14116895 -0.14231193 -0.18450052
0001e0 14 2d 4d 3d 66 a7 95 be df a0 0b 3e 8a a1 e9 bd
       0.050091818 -0.29229277 0.13635586 -0.11407764
0001f0 41 d4 4a be 30 42 1c be db 24 c5 bd 81 cc 6a be
       -0.19807531 -0.15259624 -0.0962617 -0.22929575
000200 d8 c6 9e 3e 86 09 21 3c 4d 2b 8e 3e 7c 67 c5 3d
       0.3101108 0.009828931 0.2776741 0.09638879
000210 56 66 54 be 0d 1a b9 3e 7e 8d 17 be 2e 6a d2 bd
       -0.20742163 0.36152688 -0.14800069 -0.102741584
000220 0e a0 62 be ae c9 89 be f2 8d b4 3d 26 0d 9f bd
       -0.22131369 -0.26911682 0.088161364 -0.0776618
000230 45 0b e9 3d b3 3f 53 be c0 b3 5c 3e 81 f9 59 be
       0.113791026 -0.20629768 0.21552944 -0.21286584
000240 cc ce 0e bd 53 7f a9 bd 18 82 66 3e fb 75 8d 3e
       -0.034865186 -0.08276238 0.22510564 0.27629074
000250 ce 8b 90 3e 7a de 6f be 9d 50 9d 3d 7c 46 d9 bd
       0.28231663 -0.23424712 0.076813914 -0.10609147
000260 29 42 dd bc 76 a7 40 be 64 0b 89 3e 73 71 7f be
       -0.027009087 -0.18813881 0.26766503 -0.24945621
000270 99 e7 8f 3e e4 fc 1d 3e b2 01 2b 3e 25 9c bd 3c
       0.28106382 0.15428501 0.16699865 0.023145745
000280 16 ff 92 3e 46 c4 e6 3d de 1c 13 3d 5f a4 93 be
       0.2871024 0.11267905 0.0359162 -0.28836343
000290 76 5b 85 3e 1e 55 c5 3d e5 d9 50 be 1d 14 69 3e
       0.26046342 0.096353754 -0.2039562 0.22761579
0002a0 2f b6 2d 3e 7e c1 95 be a7 5f 3d 3c de 17 d0 3d
       0.16964029 -0.29249185 0.01155845 0.10160802
0002b0 bb b1 1e 3e 2e 13 18 bd 8e ea 30 be eb cf ab bd
       0.15497486 -0.037127666 -0.17276976 -0.083892666
0002c0 68 11 ba bd 61 da 60 3e 21 0e 95 3e be 56 a4 be
       -0.09085351 0.21958305 0.29112342 -0.3209743
0002d0 e2 2c 0c 3e 95 34 ce 3e ac 9e a0 3b c8 c5 7a bd
       0.13688996 0.40274492 0.0049017277 -0.061223775
0002e0 cc 37 d6 3d a2 de 12 3e 91 eb 9f 3d e7 17 91 bd
       0.10459861 0.1434274 0.078086026 -0.07084637
0002f0 c4 7b 37 bd 53 7e c5 3d 2d 80 8c bc b6 11 e4 bc
       -0.044795766 0.09643235 -0.017150963 -0.027840476
000300 84 75 7f 3e 70 be 07 3f 8b f1 f5 bd 4b 7e ad bb
       0.24947172 0.5302496 -0.12008961 -0.0052945963
000310 ee 14 96 3a 4b 66 98 bb 94 8e 65 3d ad 42 9c 3d
       0.0011450329 -0.004650866 0.056044176 0.07629905
000320 a4 7a 50 be aa 8f 41 bd a3 a4 59 3e eb ff 06 3e
       -0.20359284 -0.04725615 0.2125421 0.13183562
000330 7c a6 1f 3d 90 fc 38 be 08 5b e2 bd be 16 65 be
       0.03897713 -0.18065095 -0.11052519 -0.22371957
000340 f6 75 a4 bd 4a 7f 0e 3e e3 d2 59 3e cb 62 10 3e
       -0.08030312 0.13915744 0.21271853 0.14100187
000350 84 f3 3f be 1e 31 fa bd f1 63 a8 bd 47 3e 90 3e
       -0.18745238 -0.122163996 -0.08222187 0.28172514
000360 e8 c0 c2 3d 1f 70 8b be ee 77 8b 3e 81 9d 59 bd
       0.0950945 -0.2723398 0.27239937 -0.053128723
000370 bf 57 34 be c1 aa 41 3e fd 4f 01 be 2f 7c 62 bd
       -0.17611597 0.18912794 -0.1262817 -0.055294212
000380 43 e9 74 be 62 35 85 3e 25 0c 86 3e f2 89 c2 3d
       -0.23917107 0.2601729 0.2618114 0.09498967
000390 e1 30 e9 bd df 7f af be 10 c6 fa bd fe a7 ad 3e
       -0.11386276 -0.34277245 -0.12244809 0.3391723
0003a0 db f7 54 3e f6 ad 8f 3e 04 4c 21 3e b8 f6 95 3d
       0.20797674 0.2806241 0.15751654 0.073224485
0003b0 60 73 da 3d 98 c6 f4 bd 3f a5 99 be 9d 6f b1 be
       0.10666537 -0.11951941 -0.30008885 -0.34655467
0003c0 9c 70 18 3e 94 6e 85 be 60 54 e2 3c a7 7b 0c be
       0.14886707 -0.26060927 0.027628124 -0.13719045
0003d0 94 6a 14 bd e7 2c 64 be 18 be 1c be 72 9a ec 3d
       -0.036234453 -0.22282754 -0.1530689 0.115528956
0003e0 d2 ff 08 bd 7e 84 5f 3e 98 e8 9d bd 51 0b 80 be
       -0.033447094 0.21827886 -0.07710379 -0.25008634
0003f0 d6 f4 df 3b 42 aa 41 be 25 ac 67 bc ad 8d 61 be
       0.0068346066 -0.18912604 -0.014140164 -0.22026701

encoder.0.bias f4 [128]
000000 23 db b6 3d 0a 42 32 ba dc 1f bc bd c7 b6 d3 bd
       0.08928516 -0.0006800002 -0.09185764 -0.103375964
000010 5e 2e 93 bd 59 e1 c7 3e 33 8a 4a 3e da d9 b3 3e
       -0.07186578 0.39039114 0.19779281 0.35127145
000020 99 39 25 3e 27 7c 36 3e a0 40 3e 3e 96 27 a4 3d
       0.16135253 0.17820798 0.1857934 0.08015363
000030 e5 60 4b be 97 56 fe bc e5 40 3f 3d 39 22 8f 3d
       -0.19861181 -0.031047149 0.046692748 0.06988949
000040 94 0e 2c 3e e4 7d 26 3e d3 8a 97 3e f3 98 22 3e
       0.16802436 0.16258961 0.29598102 0.15878658
000050 de 6e 6f bd 3a 41 1b be 31 48 1f be 72 53 22 be
       -0.05845534 -0.151616 -0.15554883 -0.15852144
000060 d8 aa f7 3d 0c f2 40 3e 8d 1a a8 3e df c1 9f bd
       0.12093133 0.18842334 0.32832757 -0.0780065
000070 b3 58 d6 3c f1 21 ff 3b df be 3b 3d d0 c7 32 3e
       0.026165342 0.0077860286 0.045836326 0.17459035
000080 62 bf 71 3d fc 2c 16 3d 70 08 12 3e 5e 77 18 3e
       0.059020407 0.036663994 0.14261031 0.14889285
000090 39 45 be 3c 61 fe 13 be b1 3b 23 3e 53 95 d5 bb
       0.023226367 -0.14452507 0.15940739 -0.006518045
0000a0 7a b3 52 bd b9 fe 26 3e 07 d9 bf 3d a0 40 8b 3d
       -0.051440693 0.16308106 0.093675666 0.067994356
0000b0 b4 04 3b be 91 7b 59 3d 00 48 2b be ac 15 be 3d
       -0.18263513 0.053096358 -0.16726685 0.09281477
0000c0 21 ef cc 3d 32 c0 64 3e a5 aa af 3d cf f6 ca 3d
       0.10006548 0.22338942 0.0857747 0.09910356
0000d0 7c 90 2d 3e c7 6c 9f 3e 6c 0e 05 bd cd d3 8a 3e
       0.16949648 0.31137678 -0.032484457 0.27114716
0000e0 dd f0 c5 3d e2 92 80 bd 40 5b 17 3e dc b6 0b be
       0.09665082 -0.06278016 0.14780903 -0.13643974
0000f0 0e 03 47 bd 78 3d 90 bd c1 9f fe bd 1a 89 9e 3e
       -0.048586898 -0.07042974 -0.124328144 0.30963975
000100 2c ec 81 be 7c eb 63 3e f5 c2 ef bd f0 43 a3 3d
       -0.25375497 0.22257799 -0.11707107 0.079719424
000110 3c 86 b9 3d 61 23 96 3e 7a 26 11 3c ea 75 36 3e
       0.09058806 0.29323867 0.008859271 0.17818418
000120 a9 ea e2 3d 56 a1 61 3e 57 05 30 3d 4f 9b 83 3e
       0.11079914 0.22034201 0.042973842 0.2570443
000130 fc f5 72 bd dc 97 45 be 10 62 9f 3e 9d eb 5f be
       -0.05931662 -0.19296211 0.31129503 -0.21867223
000140 08 81 f5 3c cb 71 9e 3d 4e 26 ae 3e 43 d1 81 bd
       0.029968753 0.07736548 0.340136 -0.06338742
000150 ff d6 63 be c8 de 95 bd ad 51 83 3e 7f 45 7c 3e
       -0.22249983 -0.07317883 0.2564825 0.24635886
000160 cd f0 90 3e de b6 a7 ba cc 64 f4 3d 01 06 74 be
       0.28308716 -0.0012795588 0.11933288 -0.23830415
000170 39 4b 8a 3e a7 4c 11 3e a9 f7 70 3e 76 52 a5 bd
       0.27010515 0.14189397 0.23531975 -0.08072369
000180 46 5f cd bc c8 17 3d 3e c1 bd f8 bd e5 c1 0d be
       -0.025069844 0.18466103 -0.12145568 -0.13843496
000190 42 27 80 be 8e 3d 92 3d 9e 1c 63 3e d4 41 14 3e
       -0.2502995 0.07140647 0.22178885 0.14478236
0001a0 53 6b c1 3d 6a d3 39 3e ab 3f 2f be 60 95 9d 3d
       0.094442986 0.18147054 -0.17114131 0.07694507
0001b0 bb 37 d6 3c bc a1 62 bd 6c c0 9e 3e af bc 20 be
       0.026149621 -0.055330023 0.3100618 -0.15696977
0001c0 19 a5 e9 3d f2 c6 5f be f2 88 11 3d 8f 56 21 bb
       0.11408443 -0.21853235 0.03553099 -0.0024618243
0001d0 32 c0 3b 3e 14 fe 25 be 13 60 75 3e 7e 8e 2c be
       0.18335035 -0.16210204 0.2396243 -0.16851231
0001e0 c9 45 3c 3e 86 59 5b be 60 f6 80 3e 55 87 df bd
       0.18385996 -0.21420869 0.2518797 -0.109144844
0001f0 6e 5f 8e bc 5c ca 0a 3c 80 93 56 3e f2 44 4f 3e
       -0.017379489 0.008471098 0.20954704 0.20241144

encoder.2.weight f4 [64, 128]
000000 c2 b5 da bd 15 88 a7 3d 59 11 0b bc d3 ec c2 bc
       -0.10679199 0.081802525 -0.008488023 -0.023794567
000010 b8 c5 0d 3d 89 0d dd 3d 88 b8 f0 3c f6 15 fc 3d
       0.034612387 0.10793597 0.029384866 0.12308876
000020 2f fb dd 3c af 8b 2c 3e 9a a2 05 3e e2 d5 d4 3c
       0.027097313 0.1685016 0.13050309 0.025980894
000030 e6 84 63 3d 4d b5 44 bd a0 11 22 3e 7c 9d 95 bd
       0.055546664 -0.048024464 0.15827036 -0.073054284
000040 41 ae 18 be b6 1b 54 bb 6e 10 1b 3e 8c 3b 2f 3e
       -0.14910223 -0.003236515 0.15142986 0.17112559
000050 af eb 9f 3d b7 cd dd 3d 61 6f 10 be be f0 c0 3a
       0.07808625 0.108302526 -0.14104988 0.0014720184
000060 af 52 ed bc 7f d3 bd 3d 2f cd 9d 3c e0 da 37 bd
       -0.02897009 0.09268855 0.019262878 -0.04488647
000070 43 0c 9f 3d f6 3f c6 3d fc a0 bf 3c ca ab bf 3b
       0.077660106 0.09680168 0.023392193 0.0058493363
000080 1b 3d b6 bd 30 fa ab 3d 68 1e 0f b9 d1 62 3c 3d
       -0.08898374 0.08397329 -0.0001364887 0.045992676
000090 a2 53 5f be 6d 88 76 3d cb 82 8d bc e4 fb a5 bc
       -0.21809247 0.0601887 -0.017274281 -0.020261712
0000a0 37 a4 ec 3d b6 81 e3 3d 57 52 de bc bc 9d 13 3e
       0.11554759 0.11108725 -0.027138872 0.1441564
0000b0 8c be e6 3c 2b 02 a7 3d 1f 4a 5e 3c ca 75 10 3e
       0.028167032 0.081547104 0.0135674765 0.14107433
0000c0 d4 85 b1 bd 70 f3 de 3d 86 95 ca 3a 1e 2e f9 bd
       -0.08668104 0.10886276 0.0015455938 -0.12166999
0000d0 38 4e fe 3d e3 77 ed 3b 90 a9 10 3e bf f9 0c be
       0.12417263 0.0072469576 0.14127183 -0.13767146
0000e0 70 d6 1f bd 2c d8 78 bd 8e 94 17 be 3c 90 9a bd
       -0.039022863 -0.060753033 -0.14802763 -0.07547042
0000f0 cb fc 88 ba 11 af 25 3d 83 2f 05 3e 13 ae bc bd
       -0.0010451315 0.04045016 0.13006406 -0.092128895
000100 5d b8 1a 3b fb 54 48 3d d0 c7 7e 3d 32 04 4d 3e
       0.0023608424 0.04890917 0.062202275 0.20021132
000110 96 a7 ef bb 19 6f 90 3d 56 a9 38 3e 8e b8 83 3b
       -0.007313679 0.0705244 0.18033347 0.0040198034
000120 b2 08 4c bc eb 64 44 3d a9 d0 09 bd f6 c8 d3 3d
       -0.012453245 0.047947805 -0.03364626 0.10341065
000130 b0 9f ab 3d b7 de c2 3d 2e ee b6 3b 71 b2 6c 3d
       0.08380067 0.09515136 0.0055825925 0.057787362
000140 b0 82 c9 b8 84 50 29 3e 73 07 ec 3d 9e 10 c6 3d
       -9.608769e-05 0.1653462 0.11524858 0.09671138
000150 8d e2 8f 3b 68 27 9a 3c 14 75 76 3e 5c 8e 47 3e
       0.0043910206 0.018817618 0.240681 0.194879
000160 41 5c ad 3c ec 9f cd 3d a6 ba 2d 3d 70 d3 82 bc
       0.021162154 0.10040268 0.04241433 -0.015969962
000170 58 64 ee 3d a6 6c 48 bc a3 35 29 3d 7f 85 24 3e
       0.11640233 -0.012232935 0.041310918 0.1606655
000180 8f 47 9f bd 02 cb 35 be 25 cf 89 bc 95 42 64 bd
       -0.077773206 -0.17753223 -0.016822407 -0.05572756
000190 a4 7e c6 bc 13 f3 e1 bd a6 33 2d 3e 7f 86 89 3d
       -0.024230309 -0.11032691 0.16914234 0.06715106
0001a0 ad 66 ed 3d da 98 8c bc a4 ef 1d 3d cb fd 17 bd
       0.115918495 -0.017162729 0.038558617 -0.03710727
0001b0 f8 4c e8 3c d2 8d 9d 3d 62 da 08 3e be 83 99 bd
       0.028357014 0.07693066 0.13364556 -0.07495831
0001c0 fd f7 c7 3d 1a e0 02 be 9c 99 87 bd 18 cb 41 3d
       0.09764097 -0.127808 -0.066210955 0.047312826
0001d0 3c 7e 3c 3e 85 f2 6b bc 0a e0 b7 bd a2 01 e9 3d
       0.1840753 -0.014401083 -0.08978279 0.113772646
0001e0 c7 62 cd 3c cb 86 89 bc 2d 11 1b 3e 8c 51 a7 3d
       0.025071515 -0.016787907 0.15143271 0.08169851
0001f0 d0 0d 98 bd 46 cf b5 bb 15 a4 82 bc 7e 12 37 3c
       -0.074245095 -0.0055483906 -0.015947381 0.0111738425
000200 b9 a2 17 3c 67 98 ce 3c 09 be 8c bd 05 7d 93 3d
       0.009255105 0.025219155 -0.06872184 0.0720158
000210 3e 8f 0c bd ad 96 47 be 3b fc 49 3c 1f f9 88 bd
       -0.034316294 -0.19491072 0.012328203 -0.06688141
000220 98 83 e8 bd ac 1a 43 be 02 1f 88 bc 96 7d 6b 3d
       -0.113532245 -0.19053143 -0.016616348 0.057492815
000230 61 3b 06 bd b7 2b 0a bc 3d 43 04 be b8 a4 d0 3d
       -0.032771472 -0.008433274 -0.12916274 0.101876676
000240 4d 49 71 3e 15 96 1a bd 42 2f 68 bd 5a 7f 2b be
       0.23563118 -0.037740786 -0.056685694 -0.167478
000250 2f 6a c8 bd 48 e3 bf 3b ec 05 f6 3d 3e 69 a3 3d
       -0.09785878 0.0058559515 0.12012848 0.07979058
000260 20 e0 33 bd 46 c3 ac bd c0 03 db bd 1a 85 bb 3d
       -0.043914914 -0.08435683 -0.10694075 0.091562465
000270 e7 26 56 bd 77 15 ce 3d 5e 24 ed bc d7 1f 89 ba
       -0.052283194 0.10062688 -0.028948005 -0.001046176
000280 06 1a 44 3e 05 5e 8c bd e5 18 7a 3d de 6b e7 bd
       0.19150552 -0.0685387 0.061058898 -0.11299871
000290 b2 ee 1c 3e 95 0c 64 3d b8 f5 34 3e 00 cc d7 3b
       0.1532543 0.05567606 0.1767186 0.006585598
0002a0 c1 70 59 bd fb 86 a2 bd 61 ee 4d 3e 61 7d 22 be
       -0.053086046 -0.07935902 0.20110466 -0.15868141
0002b0 48 00 03 bd 92 f5 66 3d b1 46 19 3e 49 79 9c bd
       -0.03198269 0.056386538 0.14968373 -0.07640321
0002c0 ae cf 8f 3d 32 10 c7 3b 22 73 2d 3e 7d a6 5a 3d
       0.07022034 0.0060749287 0.16938451 0.05338143
0002d0 66 b7 2b be d0 5f 4d bb 5e 22 1b bd f2 97 24 3e
       -0.1676918 -0.0031337626 -0.037874572 0.16073588
0002e0 67 9e 2d 3e b1 70 88 3d 21 9e 32 3e 5a 3b 3e bd
       0.16954957 0.06662119 0.17443134 -0.04644332
0002f0 98 85 28 3d be bd fe 3d d4 6d 01 bd fe 46 32 3e
       0.04114303 0.12438534 -0.03159888 0.17409894
000300 98 65 15 bd 52 31 1b be 0f 09 3c be c0 12 07 bd
       -0.03647384 -0.15155533 -0.1836283 -0.032976866
000310 d2 68 0d 3e 64 00 0e be 45 0e 0c be 3c d6 05 3e
       0.13809517 -0.13867337 -0.13677318 0.13070005
000320 01 ec f2 39 af 98 18 3d 0e 32 6e 3b fa ba cf 3c
       0.00046333674 0.037254985 0.0036345753 0.025357712
000330 de 70 b6 3c d6 b4 0d 3d df 75 0a 3d 58 c8 a2 3d
       0.022270616 0.034596287 0.033803817 0.07948369
000340 60 46 04 3e 7e c2 c6 bd 78 36 19 be 89 2a 71 3c
       0.12917471 -0.09705065 -0.14962184 0.014719614
000350 37 68 84 bd 40 eb de 3c bd 62 06 be 6c 74 bf bd
       -0.0646519 0.027211785 -0.13123603 -0.093483776
000360 34 7a d1 bd cf a8 22 bd 8a 6a 69 3d 7b 19 8d 3d
       -0.102283865 -0.03971177 0.05698637 0.06889626
000370 d1 d7 71 3d da 27 c9 bc 12 bd 86 3d ba c3 ca bd
       0.05904371 -0.024555136 0.06579031 -0.09900613
000380 29 1f 09 3e c9 61 01 3e 11 c5 91 ba 95 64 15 3e
       0.13390793 0.12634958 -0.0011121352 0.1458915
000390 24 98 a4 bd 45 73 01 3e 9c c8 20 be 12 4d 85 3c
       -0.08036831 0.12641628 -0.15701526 0.016272102
0003a0 b1 55 57 bc fc 6e c8 3d fc 20 9e 3d a5 7a 53 bd
       -0.013142989 0.097867936 0.07721135 -0.051630635
0003b0 58 e2 5a bd 37 70 1a be 9f e8 68 bd 8c 7b d2 3d
       -0.053438514 -0.15081869 -0.05686247 0.10277471
0003c0 32 b4 eb bc 3d 78 fa 3d 36 c9 7d 3c b3 0b d3 bd
       -0.028772447 0.12229965 0.015489867 -0.10304966
0003d0 7c 11 26 be 16 fe 7a 3b da df fa 3a fd 33 e1 bd
       -0.16217607 0.003829842 0.0019140199 -0.10996244
0003e0 d6 0a 8c 3d 99 ad 87 bd de 53 41 be 43 48 c8 3b
       0.06838004 -0.06624908 -0.18879649 0.00611213
0003f0 a7 30 0a 3d 29 1c 34 bd 9a 54 20 3e 8a b6 0d be
       0.033737805 -0.043972168 0.15657273 -0.13839164

encoder.2.bias f4 [64]
000000 03 e1 3a 3d 19 28 c3 bc 67 c6 ac bd fd de f0 3d
       0.045624744 -0.023822831 -0.0843628 0.11761282
000010 76 08 4d bd a0 d4 bb bd 51 68 f4 3c 7e 9e 5e bd
       -0.050056897 -0.091714144 0.029834898 -0.05435037
000020 1b 36 a9 3c 4f 8c 22 3d c5 af 57 3d 11 24 96 bc
       0.020655682 0.03968459 0.05265786 -0.018327745
000030 c7 69 95 bd 87 cd 8e 3d a4 42 9d bd c7 60 03 3e
       -0.07295566 0.06972795 -0.07678726 0.12829886
000040 ae 74 3f 3d e7 60 52 3d 68 fa 1d 3d 49 38 23 bc
       0.046742134 0.051361945 0.038568884 -0.00996215
000050 5e 9c 16 bd 07 63 08 3d 9c c7 bc 3d 32 7d e2 3d
       -0.036770217 0.033297565 0.0921776 0.11059035
000060 99 66 05 bd 69 76 24 3d cf b4 30 bd ba 82 19 3d
       -0.032568548 0.040151987 -0.043141183 0.037478186
000070 20 9f ac bc 06 5c a4 bd 89 dd c2 3d 00 ab 49 bd
       -0.02107197 -0.080253646 0.09514911 -0.049235344
000080 c5 fc 13 be 9b 27 d1 bd d4 0c e3 bc 88 08 39 bc
       -0.14451893 -0.10212632 -0.027716078 -0.011293538
000090 cf e1 c6 bd 9b 7f 88 bc f4 78 ed bc 5b 35 f9 bd
       -0.09711038 -0.01666241 -0.028988339 -0.1216838
0000a0 e2 40 10 be e2 cb c8 bd 4c ec 0b be f3 46 95 bd
       -0.14087251 -0.098045126 -0.13664359 -0.07288923
0000b0 ee d6 1f be 96 d7 22 be 3c 3b 3b be 20 d0 0f be
       -0.15609333 -0.15902552 -0.18284315 -0.14044237
0000c0 4e 27 56 38 60 4a 42 be cb e9 8f bd 1d fa 25 be
       5.105818e-05 -0.18973684 -0.07027014 -0.16208692
0000d0 38 bc 09 be 90 1e f1 bd 48 49 66 bd 26 c6 13 bd
       -0.13450706 -0.117734075 -0.05622223 -0.03607764
0000e0 6a d4 fd bd 34 2a c8 bd a8 20 c7 bd bf a6 da bc
       -0.123940304 -0.097736746 -0.097230256 -0.026690839
0000f0 1a 70 52 bd dc 92 d8 bd 3d 88 1d bd f4 0c 28 be
       -0.05137644 -0.10574886 -0.038460005 -0.16411191

world_model.0.weight f4 [128, 37]
000000 3a 71 85 3d 55 96 02 3e a7 c0 ae bd da f7 7b 3d
       0.06515737 0.1275266 -0.08532839 0.061515667
000010 eb 60 9a 3d 6f 3c 0d be 82 b4 41 3d 24 9e fe 3d
       0.07538017 -0.13792585 0.047291286 0.12432507
000020 37 5a 77 3c 5d 25 02 bd c0 f2 83 bd 39 76 df bd
       0.0150971925 -0.031773914 -0.06442785 -0.10911221
000030 9b 87 23 3d 0a 23 1f be d6 19 10 be c7 a5 73 bd
       0.039924245 -0.1554071 -0.14072356 -0.05948427
000040 ae 6a 1f be 3f 32 1d 3e 8c f9 58 bd 72 01 b3 bd
       -0.15568039 0.15351199 -0.05297236 -0.0874051
000050 8a 45 29 3d 2a e6 90 3d c7 8c fd 3d bf ed 87 bd
       0.041326083 0.0707515 0.12380367 -0.06637143
000060 8b 54 eb bc 34 3f fe bd 86 ff 12 be 38 7f 92 bd
       -0.028726837 -0.12414399 -0.14355287 -0.07153171
000070 37 87 97 3c 4d e9 a6 bd e9 e2 39 bd a5 d2 76 3d
       0.018497093 -0.08149967 -0.045382414 0.06025948
000080 90 f0 0a 3d 9e be cf 3d ee 79 9b 3d e2 8a b1 3d
       0.033920825 0.10143779 0.075916156 0.08669068
000090 00 0f ae bd b6 96 b4 3d da e2 16 be ef 5d 4f 3d
       -0.08498955 0.08817808 -0.14734975 0.05062669
0000a0 16 58 d4 bd 31 f1 39 3d 0d 05 1a be 82 0e df bc
       -0.103683636 0.045396034 -0.15040989 -0.027228598
0000b0 9c 17 cf 3d 47 5f a8 bd 4e 6d d0 3d 4a 65 d1 bc
       0.10111925 -0.08221298 0.10177098 -0.025560994
0000c0 f2 ee 1d 3e 44 9b 1e 3e fc a6 c6 bd 00 b8 1d bd
       0.15423182 0.15488917 -0.096998185 -0.038505554
0000d0 cc a0 09 bd fc 9b 7e bd 66 5a 5d 3d 21 47 19 be
       -0.033600613 -0.062160477 0.05404129 -0.1496854
0000e0 8f e9 c9 bd 86 1f d3 bc 16 c8 15 be 9e 3e 21 be
       -0.09859001 -0.025771867 -0.14627108 -0.15746543
0000f0 1d 14 8a 3d 41 8f 0c be 3d b2 df 3d 78 7f c3 bd
       0.067421176 -0.13726522 0.10922668 -0.09545797
000100 5a d1 56 bc 90 03 cb 3d 21 03 26 be aa e6 23 be
       -0.013111437 0.09912789 -0.16212131 -0.1600596
000110 5c 53 e0 3b 29 b3 88 bd eb 60 9d 3d 6f 09 6b 3d
       0.0068458747 -0.06674797 0.07684501 0.057382043
000120 37 c2 a5 3c ca c3 7c 3d 25 06 10 3e 57 bf d5 3c
       0.02023421 0.061710157 0.14064844 0.026092215
000130 f9 c3 de 3d 74 d4 bd bd af b4 0a 3e 37 78 ef bc
       0.108772226 -0.09269038 0.13545488 -0.029232128
000140 85 47 b6 3d 6f e7 0b be cc 54 ca bd 5c 18 c5 bd
       0.0890036 -0.13662504 -0.09879455 -0.09623787
000150 6d dc b1 3d 1b 83 b3 bb bd 7f 1a be 6f 19 25 3e
       0.08684621 -0.0054782755 -0.15087791 0.16122983
000160 1e 82 2f 3d 85 d5 1a 3e 6f 1d a8 3c c2 0f c1 3c
       0.0428487 0.15120514 0.020521848 0.023567084
000170 84 af f2 3d 66 10 e5 bd 91 fb 1e 3e 45 8d d8 bd
       0.11849883 -0.111847684 0.15525652 -0.1057382
000180 bd 22 74 3c 47 f9 da bd ee 14 df bd 1f 93 01 3e
       0.01490086 -0.10692077 -0.10892664 0.12653778
000190 75 d9 31 bd a5 c0 fc bc a8 87 03 3e 37 ed 24 3e
       -0.043420274 -0.030853579 0.12844718 0.16106115
0001a0 50 d6 17 be ea 0f 3c bb 4a 49 40 3d eb a1 21 3e
       -0.14827847 -0.002869601 0.046944894 0.15784423
0001b0 63 3a 86 bd 09 26 5b bd fc 56 c5 bd 4a 0e 2c 3d
       -0.06554105 -0.05350307 -0.096357316 0.042005815
0001c0 4e 13 26 3d b9 e5 29 bb 80 97 88 bc b6 65 ea bd
       0.040545754 -0.002592428 -0.016673803 -0.11445181
0001d0 3b 4a 8a bd c7 0c 80 bd e2 e0 30 3d bb ae 94 3d
       -0.067524396 -0.06252437 0.043183215 0.0725989
0001e0 30 2f 9d 3d 42 80 00 be 00 a0 4f bc 6a 82 00 bd
       0.07675016 -0.12548926 -0.012672424 -0.031374373
0001f0 6e ec 27 3e f3 f5 f2 3d 0d 53 fb bd f7 ff b8 bd
       0.16398785 0.11863317 -0.122717 -0.090331964
000200 17 57 fe bd cb 86 28 bd 51 4b 13 be 1f 3d 9e 3d
       -0.12418955 -0.041144174 -0.143842 0.07726502
000210 df 7b 94 bd f4 fa a8 bd f7 98 fe 3b 0d 28 57 bd
       -0.07250189 -0.082509905 0.0077696997 -0.05252843
000220 c3 59 fe 3d e2 99 18 3e 25 4f 16 be f6 f4 96 3d
       0.124194644 0.14902452 -0.14678629 0.07370941
000230 cf cf 60 3b 9f b7 b0 3d 30 72 7c bd db ef 4b bc
       0.003430355 0.08628773 -0.061632335 -0.012447323
000240 fe 89 49 bb d2 e2 66 3d 3d df a7 3d 69 4f 83 3d
       -0.0030752416 0.056368656 0.08196876 0.06411631
000250 d9 48 a5 3c ef 4b 06 be 44 69 c1 bd 24 cf bf bd
       0.020176338 -0.13114904 -0.09443906 -0.09365681
000260 d0 c3 27 be dc 41 21 3e 07 6f 98 bd 8e cb df bd
       -0.1638329 0.1574778 -0.07443052 -0.10927497
000270 e1 78 98 bd f9 cf b6 3d 04 10 d3 bd e6 a9 0c be
       -0.07444931 0.089263864 -0.10305789 -0.13736686
000280 89 a6 fb bd 49 fc 13 3d 91 65 dc bb 9f e3 17 be
       -0.122876234 0.03612927 -0.006725975 -0.14832924
000290 aa 4e e6 bd 2e e4 11 be 51 01 67 3d 10 5e 98 3d
       -0.11245473 -0.142472 0.05639774 0.07439816
0002a0 7f 68 e5 3c 04 bd 57 bd 5a 64 b4 bd 6b 1b 85 3d
       0.02800393 -0.052670494 -0.08808203 0.0649937
0002b0 cc a1 1a bd 3c 2f d8 bc 05 bf 5c bd db 0f ea 3c
       -0.037751958 -0.02638971 -0.053893108 0.028572014
0002c0 18 f5 1d 3d 3a 50 0a 3e aa 81 15 3e c7 8b 2d bd
       0.038563818 0.13507167 0.14600244 -0.04236963
0002d0 3f 28 c8 3c 1e 0b e1 bd 46 c1 fc bd f7 98 0b 3e
       0.024433253 -0.109884486 -0.123415515 0.1363257
0002e0 6a a5 9e 3c 7c 68 a7 bd 92 44 a9 3d 1f d4 87 3d
       0.019365985 -0.08174226 0.08265032 0.06632256
0002f0 b7 0b 71 3d 3b 76 8e 3d 71 da 0f 3c a2 ec f4 bd
       0.058849063 0.069561444 0.008780108 -0.119591966
000300 ed a7 15 be 3a 5a 24 3e 35 0c eb 3d 71 56 03 be
       -0.1461484 0.16050044 0.11476938 -0.12825944
000310 42 ec 03 3e cb 72 1d be fa f6 df 3d bc 73 ea 3d
       0.12883094 -0.15375821 0.10935779 0.11447856
000320 c9 86 d3 3d 5b 7e 8e 3d a6 ed cb bd e6 63 90 bd
       0.103284426 0.06957694 -0.09957437 -0.07050304
000330 62 5a 10 3d d9 c9 84 3d 3b 92 13 3e a9 a0 ef 3b
       0.035242446 0.06483812 0.14411251 0.0073128534
000340 77 a5 8a 3d ba 45 fe bd 97 ad 08 bd 97 39 c8 3d
       0.06769841 -0.12415643 -0.033368673 0.097766094
000350 e0 24 5c 3c 2b 15 05 3e 6f 15 07 be 97 a8 e0 bd
       0.013436526 0.12996356 -0.1319177 -0.10969656
000360 97 b1 53 3d 07 45 e1 bb 6f d7 0f be c3 a8 8f 3d
       0.051683035 -0.006874684 -0.14047025 0.070146106
000370 f6 07 de 3b 59 d7 22 3d 7a fa 13 3d 24 29 e8 bd
       0.0067758514 0.039756153 0.036127545 -0.11335972
000380 ea d8 e1 bd 72 b1 06 be db 8d f4 3d 1f d2 b8 bd
       -0.11027701 -0.13153628 0.11941119 -0.090244524
000390 8d 8c 17 3e e4 0a 57 bd 29 0c 15 3d 99 c8 20 3e
       0.1479971 -0.05250062 0.03638855 0.15701522
0003a0 6f ae b4 bd e0 ab 1f be 64 37 c2 3c e2 e5 f2 bd
       -0.08822333 -0.15592909 0.023708053 -0.11860253
0003b0 ca 85 b9 3d 56 da 85 3d da f1 f3 3d 9b e6 8b bc
       0.09058721 0.06535785 0.11911364 -0.017077735
0003c0 01 f8 db bd 0a 23 1b be 7f 77 d9 bd 70 f2 15 3e
       -0.10740662 -0.15150085 -0.10618495 0.14643264
0003d0 55 26 10 bd cb 58 45 bb 26 e1 0e bd 87 e8 ab bd
       -0.035192806 -0.003011274 -0.034882687 -0.083939604
0003e0 28 d0 09 3e 6a 76 2e bd 81 68 a3 bd b5 8a 1b 3e
       0.13458312 -0.042593397 -0.07978917 0.15189631
0003f0 ed 84 c9 3d 21 70 b3 3d fd 46 f1 3d e4 cf d5 bd
       0.09839807 0.08761621 0.11781118 -0.104400426

world_model.0.bias f4 [128]
000000 a9 ce d8 bc 96 0a 17 be 16 5e d3 3d cd 58 8a ba
       -0.02646573 -0.14750132 0.1032068 -0.0010555029
000010 7b dc 05 be 59 a3 a2 3d 42 ac cc 3c 8a 20 b8 bd
       -0.13072388 0.07941312 0.024984483 -0.08990581
000020 9d 5d ca bd 07 d1 07 bd fb b4 9d 3d d9 51 59 3d
       -0.098811366 -0.03315833 0.07700535 0.05305657
000030 49 06 d0 bd ba 1a ec bd 79 00 0d 3e 68 47 03 3d
       -0.10157449 -0.11528535 0.13769712 0.03205052
000040 b1 42 a4 3d 6d a6 1e be 63 ee 9e 3d 44 20 12 3e
       0.08020533 -0.15493174 0.077603124 0.14270121
000050 f0 83 a8 bb f7 8a 08 3e 7f ab 0e 3d 4c 3b d2 3b
       -0.0051426813 0.13334261 0.03483152 0.00641576
000060 76 19 6b 3d 73 c0 6b bd e5 d0 8e bc a0 da 03 bd
       0.05739733 -0.05755658 -0.017433593 -0.03219092
000070 e1 c0 2d 3d ed c1 85 3c 6d 26 9d bd 86 74 ac 3d
       0.04242027 0.016327823 -0.07673345 0.084206626
000080 eb df bc bd 29 60 d4 3d d3 48 87 3c c9 61 2c bc
       -0.092223965 0.103699036 0.016514217 -0.010521361
000090 7e a0 2f bc 31 6c 13 3d c4 d0 e1 3b 90 e4 12 3e
       -0.010719417 0.03599185 0.006891342 0.14345002
0000a0 be d6 06 3e 35 60 27 3e 5f 99 cc 3d 48 8c 64 3b
       0.13167855 0.16345294 0.09990191 0.0034873653
0000b0 3e 78 82 bd 50 fc 79 bd eb 3f cc 3d ee 36 55 bc
       -0.063705906 -0.06103164 0.09973129 -0.013013585
0000c0 d1 fc 16 be a0 37 a9 3b 54 c8 1e bd 1c a4 f3 bd
       -0.1474488 0.0051641017 -0.038765267 -0.11896536
0000d0 5b 5b ff bd 0b fc 75 bc 6d fc 70 3d af aa b5 3d
       -0.124685965 -0.015013705 0.058834482 0.08870446
0000e0 20 2b f1 bd 30 5e 0e be 53 81 00 be 09 ec d7 bb
       -0.117758036 -0.13903117 -0.12549333 -0.006589417
0000f0 18 15 5c bc 3c 43 9d 3d 23 09 09 be 14 2e 19 3e
       -0.0134327635 0.076788396 -0.13382392 0.14958984
000100 45 83 49 bd 21 74 1f be a5 4d d4 bd 5b 5d 23 3d
       -0.049197454 -0.15571643 -0.10366372 0.039883953
000110 51 81 0b bd 9a c7 f3 3d 1f 03 4b ba 26 e5 cc 3d
       -0.034058873 0.11903305 -0.00077443005 0.10004644
000120 8f 92 0b 3e 2b ea 7f bd 82 55 5d 3c 07 f7 4d bc
       0.13630126 -0.06247918 0.013509156 -0.012571103
000130 5e f6 99 bd bc 44 19 be f0 79 a3 bd cf fa ab 3d
       -0.07517694 -0.14967626 -0.07982242 0.08397447
000140 f9 72 01 bd 5d 5c 14 be 19 48 32 3d 8c ce 75 3d
       -0.031603787 -0.14488359 0.04352579 0.06001143
000150 ae 6b f7 3c 7e 9b 08 3e 3c 01 01 be df d4 84 bd
       0.030202713 0.13340566 -0.12598127 -0.064859144
000160 d1 0a 1c bc df 28 de bd 64 f7 62 3d 67 11 29 bd
       -0.009524063 -0.10847639 0.05541171 -0.04127636
000170 ac df 1c 3e d1 bb 5e bd f4 f7 ed bd dd 34 01 3e
       0.15319699 -0.054378334 -0.11619559 0.12617822
000180 38 83 25 3e 56 10 f8 3d 12 44 02 be 8f 82 a6 bd
       0.16163337 0.12112491 -0.1272128 -0.08130371
000190 60 88 9e 3d 0c 9e 1a 3e 8a 89 e5 3d ea f3 0f be
       0.07740855 0.15099353 0.11207874 -0.1405789
0001a0 33 b5 62 bd 38 ab 1b bc e4 3e a5 3d e7 1f e9 bd
       -0.055348586 -0.009501271 0.08068636 -0.11383038
0001b0 ef 12 85 3d da 9c 1d bd 41 03 50 3d 11 e9 d6 bc
       0.06497752 -0.038479663 0.050784353 -0.026234182
0001c0 03 e7 22 3e 59 ac 8d bc 7f e8 81 bd 60 ba da bc
       0.15908436 -0.017294096 -0.06343173 -0.026700199
0001d0 64 37 a6 bd 55 37 0b be 41 76 d9 3d 25 34 cc bd
       -0.08116034 -0.13595326 0.10618258 -0.09970883
0001e0 0a 96 92 bd 1a 93 ad bd ea f7 db ba 1c 28 bd 3d
       -0.07157524 -0.08475323 -0.0016782258 0.09236166
0001f0 cb 96 35 bd 14 5b 7b 3a 54 09 6f bd 92 c7 03 3e
       -0.04433326 0.0009588462 -0.058358505 0.12869099

world_model.2.weight f4 [64, 128]
000000 0f 59 55 bc fa 4c 81 3d de ec c4 bc 64 16 cd bc
       -0.0130217215 0.0631351 -0.024038728 -0.02503509
000010 89 22 48 bd 55 19 72 bd d4 b0 44 3d 5b 94 aa bd
       -0.04886106 -0.05910619 0.0480202 -0.08329078
000020 af 3a 90 3c 16 be 96 3d a0 6f 86 bd 7b d2 14 3d
       0.017606108 0.07360475 -0.065642595 0.036333542
000030 07 f7 b0 3c 51 76 09 3c 2d e9 ab 3d 86 dd 78 bd
       0.021602167 0.008390025 0.08394084 -0.060758136
000040 14 bb 54 3d 2b a8 33 bd b6 6d 57 3d 97 4f e4 3b
       0.051936224 -0.04386155 0.052594863 0.0069674957
000050 b5 b9 d2 3b 18 23 9a bd df 15 25 3c b9 f6 84 bd
       0.0064308294 -0.07526225 0.010076015 -0.06492371
000060 8a 6a 96 bd 40 af 4a 3d 24 65 4e 3a 6e 0d ba bc
       -0.073445395 0.049483538 0.00078733475 -0.022711482
000070 d8 4f 66 bc 76 ab 8f 3d 0a 2a d0 ba b6 be 67 bd
       -0.014057122 0.070151255 -0.0015881669 -0.05657836
000080 02 e7 ae 3d 0a 31 49 bd 75 01 83 3d 1a 08 97 3d
       0.08540155 -0.049119033 0.06396762 0.07374592
000090 36 53 84 3c e2 ea a3 bd 80 df d5 bc 8e f4 96 bd
       0.01615296 -0.08003785 -0.02610755 -0.07370864
0000a0 2a ae 9e bd 2e c5 85 bd c1 38 40 bd 12 0e a7 bd
       -0.07748063 -0.0653175 -0.046929125 -0.081569806
0000b0 7f ce 46 bd e1 02 8f bd 13 82 8c bd cb 2e 6d bd
       -0.048536774 -0.06982971 -0.06860747 -0.057905953
0000c0 10 37 ae bd 05 fb cf 3a 74 e6 f8 3b 65 28 8b bc
       -0.08506596 0.0015867656 0.0075958315 -0.016987035
0000d0 b8 81 b2 3d 35 64 2f 3d cf b8 63 3d 99 02 3d 3d
       0.08716148 0.042820174 0.05559617 0.046145055
0000e0 8d 2c 3f bd ce 1b b8 3c 67 ad e6 3c ce 38 85 bd
       -0.046673346 0.022474196 0.028158857 -0.06504975
0000f0 a4 fb 9d 3d 35 0c 57 bd be 8e 32 bc 07 c9 b0 bd
       0.07714012 -0.052501876 -0.01089829 -0.08632093
000100 ef 65 8d bd b3 2b 91 3d 4b bb 84 bd 97 e9 a2 3d
       -0.06904208 0.07088413 -0.06481036 0.0795471
000110 28 54 3b 3d 6f 60 a7 3d b3 9e 29 bd 16 e5 8d bd
       0.045734555 0.0817269 -0.041411113 -0.0692846
000120 40 9b 96 3d 7e 18 14 bd 1a 71 2b bc e4 aa a8 3d
       0.0735383 -0.03615617 -0.010463977 0.0823572
000130 20 0f 24 bd b9 b6 f8 bc 7f 48 4f 3d f8 8e a3 3d
       -0.040053487 -0.030360566 0.050606247 0.079862535
000140 c0 47 82 3b 28 71 68 3a 88 9d 80 3d aa 2f 13 bd
       0.0039758384 0.0008866959 0.06280047 -0.035934128
000150 bc d5 90 3d c0 be 55 3d 6f 63 42 3c 4b 9b 3e bd
       0.070720166 0.052183867 0.011864527 -0.046534818
000160 e6 9f 9f 3d 32 c3 bf bc b7 fa 35 bd f5 18 9a bc
       0.0779417 -0.023408506 -0.044428553 -0.018810729
000170 cf d0 61 3c d3 50 b3 bd 44 a9 a8 3c 2d 60 55 bc
       0.013782694 -0.0875565 0.020588525 -0.013023418
000180 62 1a db 3c 47 10 2e bb b0 b9 3e bd ab b0 ac bc
       0.026745979 -0.0026559995 -0.046563804 -0.021080336
000190 54 cb d0 bc 0e 93 99 3d 30 1f a0 bd 22 1a d0 3c
       -0.02548758 0.074987516 -0.078184485 0.025403086
0001a0 e5 0b a4 3d 40 58 e0 3c bd 23 40 bd d5 f7 d4 3c
       0.08010081 0.02738583 -0.046909083 0.025997082
0001b0 e3 58 11 3d 03 e2 1b 3d 11 f0 ef 3b 18 8f 9e bd
       0.03548516 0.03805734 0.0073223193 -0.07742137
0001c0 c8 20 a2 3c bf 18 98 bc 55 a6 40 3d 65 24 a2 3d
       0.019791022 -0.018566487 0.047033627 0.07917098
0001d0 73 91 01 bd b9 f6 c4 3a a7 67 94 3d 2f ff 77 bc
       -0.03163285 0.0015027142 0.072463326 -0.015136524
0001e0 ba 10 5b 3c ba 6f 0c bd b2 6c b5 3c b5 68 15 bd
       0.013370687 -0.03428624 0.022146557 -0.03647681
0001f0 49 ca 9e bd 8b b0 9e bd 86 02 1f 3d 33 7b 59 bc
       -0.077534266 -0.07748517 0.038820766 -0.013274002
000200 b5 c1 7c 3c 7c d2 72 3d eb 9f 97 3c f6 5f a0 3d
       0.015427043 0.059282765 0.018508872 0.07830803
000210 42 98 dd 3c 05 db a4 bd d1 3d 65 3d 2f 33 a2 bd
       0.027050141 -0.08049587 0.055967156 -0.07919919
000220 20 1f 2e 3d 6e 4b e1 bb d2 a8 ac bd 2b a9 88 bc
       0.042510152 -0.006875447 -0.084306374 -0.016682228
000230 6c 09 9e 3d cf 28 25 bd 8a a9 1c bd 34 c8 43 3d
       0.07716641 -0.04032212 -0.038247623 0.04779835
000240 b1 71 93 3c fb 2f 12 3d 52 34 64 bd 35 57 f6 bc
       0.017998548 0.03569029 -0.05571396 -0.03007088
000250 45 7d 6b bd dc e0 a4 3c b9 6f 93 3c c4 50 35 bd
       -0.057492513 0.020126753 0.01799761 -0.044266477
000260 ad 82 45 bd 94 5a 28 3d b3 41 eb 3b c6 1b 94 3c
       -0.048220325 0.041102007 0.007179463 0.01807965
000270 c7 c0 a8 bc a8 5f a0 bd 41 89 68 3d 1e 7a a9 3d
       -0.020599736 -0.07830745 0.05677152 0.08275245
000280 42 88 99 3d a3 4f 85 bd 8d e6 2a bd 21 30 83 bd
       0.07496692 -0.0650933 -0.041723777 -0.06405664
000290 bd a9 a3 3d 3f 54 91 3d ac 0b 23 bd 1e e4 81 3c
       0.079913594 0.07096147 -0.039806053 0.015855845
0002a0 fa be 81 3d 23 6d 8a 3d ea 05 28 bd 15 ef 08 bd
       0.06335254 0.067590974 -0.041021265 -0.03343113
0002b0 7e 8f 8a bd 15 e3 a2 bd 2e 0a c3 bc e1 f2 e1 bc
       -0.0676565 -0.07953469 -0.023808565 -0.027581634
0002c0 79 cf 58 3d fa ec 88 3d ec 0b 9e bc 9d 04 21 3d
       0.052932236 0.06685825 -0.019292794 0.03931104
0002d0 91 62 11 3a 5f ec 35 3d 11 cb 9f bd 53 fb 7e bc
       0.00055459986 0.044414874 -0.07802404 -0.01556285
0002e0 b2 09 f1 bc 6c 3c 92 3d f3 97 2b 3d 72 d8 0c 3d
       -0.029423568 0.07140431 0.041892957 0.034386106
0002f0 16 aa 34 3d 00 8e 71 bd 7f 86 88 bd 59 f0 55 bd
       0.04410752 -0.058973312 -0.06666278 -0.052231167
000300 d0 0f 76 bc 64 08 3a bd fb 34 1b 3d 4d 85 9c 3d
       -0.015018418 -0.04541816 0.037892323 0.076426126
000310 d2 3f b3 3d 13 c7 74 3d c5 92 15 3d 95 9d 85 3a
       0.08752407 0.059760164 0.036516923 0.0010194058
000320 bd 51 41 bd 97 13 7a 3c b7 2a 50 3d 79 73 25 3c
       -0.047197092 0.01526346 0.050821986 0.010098332
000330 41 1e 1f bc 7d ae f2 bb 01 42 a1 bd 22 1a 50 3b
       -0.009711803 -0.0074060545 -0.07873917 0.0031753858
000340 78 3c 65 3c 99 7b 9a 3d 5d 4c 03 3d 54 0e ab 3d
       0.013991468 0.07543106 0.032055248 0.08352342
000350 a8 77 f0 ba 69 1d 8b 3d c5 9e 58 bd 8a b9 d0 3c
       -0.0018346207 0.06792719 -0.05288579 0.025479097
000360 eb 9e ac 3d 5f 17 b6 3c 44 31 4a bd 65 be 16 3d
       0.08428749 0.022227941 -0.04936339 0.036802668
000370 79 c7 ac bd 80 3f 1d 3d 3a 87 47 bd 0d e7 7e 3d
       -0.08436484 0.038390636 -0.048712946 0.062232066
000380 1c c8 03 3c e1 c0 e9 3c 8c 69 24 bd 91 d7 05 bc
       0.008043315 0.028534355 -0.04013972 -0.008169071
000390 04 ad 3c bd 74 15 9a 3d 85 c5 0e 3d b6 56 3f bd
       -0.046063438 0.07523623 0.034856338 -0.046713553
0003a0 cd c9 07 bd cc 95 2c 3d 5c f5 5c bd 11 62 8f 3c
       -0.033151437 0.042135045 -0.05394493 0.017502816
0003b0 5f 77 32 bd 95 19 32 bc ed f0 78 3d 6f 14 58 bc
       -0.043570872 -0.010870357 0.06077664 -0.0131884655
0003c0 fa f8 48 3d dd db 6e bd 25 ce 8d 3d 50 bd aa bd
       0.049065568 -0.058315147 0.069240846 -0.0833689
0003d0 f5 6b ac bd 56 63 b2 bd 7a 8e 9c bd 6d 48 fe bb
       -0.08419029 -0.08710353 -0.07644363 -0.0077600987
0003e0 d0 da ac bd bf 41 a3 3c 51 ae 3d bd 21 c8 68 3c
       -0.08440173 0.019928811 -0.04630882 0.014207871
0003f0 13 16 c6 bb 95 79 06 3d 60 de 3f bc 5d de 90 bd
       -0.006045112 0.032830793 -0.011710733 -0.070736624

world_model.2.bias f4 [64]
000000 87 4e 79 3d 9c 7f b9 bb 13 cf ac 3b 79 08 9d bd
       0.060865905 -0.005660964 0.0052737086 -0.07667632
000010 5f f9 1f 3d 09 81 76 3a 28 dd 66 bd a7 55 7c 3d
       0.03905618 0.0009403383 -0.056363255 0.061605122
000020 c1 5e 67 bc b3 02 06 3b 60 3c e2 bb fa 31 ac 3d
       -0.014121712 0.0020448386 -0.00690417 0.0840797
000030 6a 67 4c 3d c5 0e b3 3d 6c d3 a6 bd 2d 7f 99 bd
       0.04990331 0.087430514 -0.08145794 -0.0749496
000040 59 95 e0 3c 7a 1b c4 bc 68 fd a5 bd 3e 59 65 3c
       0.027414965 -0.023938883 -0.08104974 0.013998328
000050 5c 24 0b bd ba b0 8c bc 7e cb 6e 3d c3 f6 49 bc
       -0.033970222 -0.017174114 0.058299534 -0.012326899
000060 bb e5 9e 3d 98 dd b8 bc b5 84 47 bc 3c f8 97 3d
       0.07758661 -0.022566602 -0.012177636 0.07420394
000070 fa 14 8b bd 28 da 99 3c 23 35 23 bd a3 7b 5a bd
       -0.0679111 0.018780783 -0.039845597 -0.053340565
000080 7a 98 80 bd 41 57 a2 3d dc bd 69 bd 4f 81 aa 3d
       -0.062790826 0.079267986 -0.05706583 0.08325445
000090 de 81 81 bd 62 cd 9a 3d 03 ff 9e bd 23 3b a6 bd
       -0.06323598 0.07558705 -0.077634834 -0.08116748
0000a0 4a f0 9b 3d 11 f6 19 3d 09 a1 65 3d 75 28 ab bd
       0.07614191 0.037588183 0.05606178 -0.08357326
0000b0 80 c5 3e 3d 01 c3 92 3d c1 3f 7e bd 86 de bc bc
       0.04657507 0.071661 -0.06207252 -0.023055326
0000c0 1f cb 71 3d 7a 57 b6 3b a8 89 04 3d 74 e5 a5 3c
       0.059031602 0.0055646272 0.03235784 0.020251013
0000d0 e9 1f 13 bc 44 70 50 3c 59 85 0a 3d ea 27 5e 3d
       -0.008979776 0.012722079 0.033818576 0.054237284
0000e0 96 c9 71 bd 3f 22 60 3d c6 b8 8c bd 09 ae 57 3d
       -0.059030138 0.05472016 -0.0687118 0.052656207
0000f0 c9 b4 7b 3c a0 55 39 3c 2e 8c 42 3d 8d db 45 bd
       0.015362927 0.0113119185 0.047496967 -0.048305083

actor.0.weight f4 [128, 32]
000000 10 13 0a 3d fa 47 af bc 3f b0 3f 3c f1 da 02 3e
       0.033709586 -0.021396626 0.011699735 0.12778832
000010 15 b1 f0 bc 48 62 0c 3e 74 c8 cd 3d 8c cf 21 bd
       -0.029381314 0.13709366 0.10047999 -0.039504573
000020 46 ce 31 be 84 79 d6 bd 54 ab a1 3d f1 a3 e5 bd
       -0.17363843 -0.10472396 0.07894006 -0.1121291
000030 a9 f8 9a bd 7f 53 29 3d d8 10 51 3d 37 7f ec 3c
       -0.075669594 0.041339394 0.051041454 0.028869255
000040 75 88 bf bd f8 4a 9e 3d 4b 0c ff 3c 95 01 d7 bd
       -0.09352199 0.07729143 0.031133791 -0.104983486
000050 98 ba 80 3d cf 51 5b bd 51 8c e0 bc 0a 6d b6 3c
       0.0628559 -0.053544816 -0.027410658 0.02226879
000060 27 3f aa 3d 42 8d bc bb c7 d4 ac bd ff 51 25 3d
       0.083128266 -0.005754144 -0.084390216 0.0403614
000070 5c 45 d0 3c fa 2d b7 bc c2 8b 1a 3e 78 27 90 bd
       0.025423698 -0.02236079 0.15092376 -0.07038778
000080 f2 72 19 be d1 43 13 be 73 7e 2a 3d 13 70 0d 3e
       -0.14985254 -0.14381339 0.041624498 0.13812284
000090 f1 e4 00 be 2a b0 54 bd 88 3f a8 bd 1b d1 a1 3d
       -0.12587334 -0.051925816 -0.082152426 0.07901212
0000a0 3b 28 05 be 81 c9 d2 3d fc 4e d1 bd a4 50 01 be
       -0.13003628 0.1029234 -0.10220143 -0.12628418
0000b0 40 eb fa bc e4 f3 b1 3d 52 a1 9d bd f2 54 93 bd
       -0.030629754 0.086890966 -0.07696785 -0.071939364
0000c0 c5 04 81 bd 2d 39 b6 bd d9 26 43 bc 60 d0 03 3e
       -0.06299738 -0.08897624 -0.0119111175 0.12872458
0000d0 c2 09 2c bd 27 01 51 be f1 fb 25 3e f1 46 ee bd
       -0.042001493 -0.20410596 0.1620939 -0.11634625
0000e0 c8 70 6a bd da 71 11 3c b1 5a 29 be 9c 3f 16 3e
       -0.057236463 0.008877242 -0.16538502 0.14672703
0000f0 54 df f0 bd 7b 35 ab bd 8e 2f 8d bd a1 0e 09 3d
       -0.117613465 -0.0835981 -0.06893836 0.033461217
000100 72 9d 05 3e a8 a8 af 3d f8 48 1a 3e a5 01 e1 3d
       0.13048342 0.085770905 0.15066898 0.10986642
000110 75 9c 27 bd 0e 44 99 bd 3c 39 0e 3d 19 2c 2c be
       -0.040920693 -0.074836835 0.03472255 -0.16813697
000120 ef cf 55 bd 1b ce 90 bc a5 75 83 bd 8b bf cd 3c
       -0.052200254 -0.017676404 -0.06418923 0.025115749
000130 bd 4d 6e bd 59 a1 f5 bd 07 cd b5 bd 9d 02 fb 3d
       -0.058179606 -0.11993665 -0.088769965 0.12256358
000140 20 17 3a be 91 83 27 bd 12 8c 22 3e d4 e8 82 bb
       -0.18172884 -0.040896956 0.15873745 -0.0039950404
000150 b8 f2 76 3d 00 fa 58 3d d6 c1 41 3d 04 31 f6 3d
       0.06029007 0.052972794 0.047303997 0.12021068
000160 95 ac 0b 3e 0e 47 33 bd 65 8f b3 bc 06 de 2f 3e
       0.13640054 -0.043768935 -0.021918962 0.17174539
000170 85 3f 1d be cd 9d 33 be 35 a8 ee 3d ed c6 c7 bd
       -0.15356262 -0.17540665 0.11653177 -0.09754739
000180 0a 4d 7a 3d ad ce 88 bd 9a 6d 00 be 46 4e 14 3e
       0.061108626 -0.06680045 -0.1254181 0.14482984
000190 f7 3e 94 3d 2e d7 a8 bd ad b5 58 3c fb 02 1e bd
       0.07238572 -0.08244167 0.013226909 -0.03857706
0001a0 d6 cf a8 bd 10 f0 e4 3d 79 0e 27 bd 5c b3 cf bc
       -0.082427666 0.11178601 -0.040785287 -0.02535408
0001b0 21 12 19 be 13 6e 39 3c 93 29 f4 3d b2 1c ac 3d
       -0.14948322 0.011317748 0.11921992 0.08403911
0001c0 7b 17 31 3d 63 49 8b 3d e9 90 ef 3d 37 00 dc bc
       0.043235283 0.06801107 0.11697561 -0.026855571
0001d0 de 57 1d be e4 96 cc bd 39 56 53 3d 0d 5f f1 3d
       -0.1536555 -0.099897176 0.0515959 0.117857076
0001e0 42 c7 ec 3d e8 96 26 bd 98 f6 c9 bd 34 3a 1f 3e
       0.11561443 -0.04067126 -0.09861487 0.15549546
0001f0 b3 12 1a be fa c5 1b 3e 35 4f 1e be 1f eb 90 bc
       -0.15046196 0.15212241 -0.15459903 -0.01769024
000200 7d 54 9d 3d ba f7 eb 3c 4f 66 13 3e 8d 84 c4 3c
       0.076821305 0.028804649 0.14394496 0.023988986
000210 4e c7 2a be 28 eb b5 3d af 7d 51 bb c2 2f 17 3e
       -0.16677591 0.08882743 -0.0031965782 0.14764312
000220 78 e4 df 3d c7 81 6e 3c dd 3d c1 3d b8 7b 89 bd
       0.10932249 0.0145573085 0.094356276 -0.067130506
000230 28 76 1c be 32 ff ce bd bd dd 43 bd cd 5a 14 be
       -0.15279448 -0.101072684 -0.047818888 -0.14487763
000240 02 b2 26 be 61 1f e0 3d f3 9e 0b bd 5a 89 ce 3d
       -0.16278842 0.10943485 -0.034087133 0.100847915
000250 49 a0 44 bc 4a fe a8 bd 90 ea 1d be e5 d7 2a be
       -0.012001106 -0.08251627 -0.1542151 -0.1668392
000260 11 e7 d3 3d ad c3 8b 3d 32 d2 ac 3c 3c 31 5e bd
       0.10346807 0.068244316 0.021096323 -0.054246172
000270 5d b3 1d be c7 66 10 3e bc 8f 33 3e af 10 d2 bd
       -0.15400453 0.14101706 0.17535299 -0.102570884
000280 c7 2b a7 3c 0c 81 15 be 78 85 ed bd ba 68 a9 bb
       0.020406617 -0.14600009 -0.11597723 -0.005169955
000290 d9 c5 d9 bd 21 b4 1e be fc 6a d9 bd e5 b0 20 be
       -0.106334396 -0.15498401 -0.10616109 -0.1569248
0002a0 e2 c5 88 3d 9b 33 ec bd 08 d2 03 3e e3 77 d3 3d
       0.06678368 -0.115332805 0.1287309 0.10325601
0002b0 cd ba 35 3e 50 32 14 be aa 76 b9 3d b6 7d 0a 3e
       0.1774704 -0.14472318 0.090558365 0.13524517
0002c0 42 9e 12 3b 5a 40 99 ba b2 69 b8 3d 80 66 79 3d
       0.002237216 -0.0011692152 0.09004535 0.060888767
0002d0 74 0e 8c bd ca 5a 2c be 1b 54 c5 bd f3 21 9c 3d
       -0.06838694 -0.16831508 -0.096351825 0.07623663
0002e0 9d 76 01 3e 9d 28 45 3a 8d f8 91 bd fd fc a4 3d
       0.12642904 0.00075210055 -0.071274854 0.08056066
0002f0 85 9b cf bc 1a ad 24 3d a1 a2 df bd ce b3 c8 3d
       -0.025342712 0.040204145 -0.10919691 0.0979992
000300 cf a1 ba bd 53 9d 47 3d b9 9f 5c 3d f0 2c 2a 3e
       -0.09112894 0.04873402 0.05386326 0.16618705
000310 60 3a 32 3e 17 38 11 be e4 a2 8c 3d 5f a4 13 be
       0.17405081 -0.14181553 0.068670064 -0.14418171
000320 23 35 a0 bd 56 2d 9e 3d e9 03 0e be da e1 11 3e
       -0.07822635 0.07723491 -0.13868679 0.14246312
000330 d8 38 57 3d 6a c0 9d 3c fb 37 cb 3d e3 a6 14 be
       0.052544445 0.01925679 0.09922787 -0.14516787
000340 37 35 e7 3c e4 f9 53 3d d9 ed a2 bd c5 82 87 bd
       0.028223617 0.051751986 -0.07955522 -0.06616739
000350 4c 0c 74 3d e7 ee 1d 3e 8d df 98 bd 44 19 be 3d
       0.05958204 0.15423165 -0.07464514 0.09282163
000360 83 2e c8 3d 48 b0 02 be 66 8c 19 be 54 42 5b bc
       0.097744964 -0.12762558 -0.14994964 -0.013382513
000370 ce c6 eb 3d 34 f2 11 be 4c 1f fb bd 02 d4 03 3e
       0.11512528 -0.1425255 -0.12261829 0.12873843
000380 31 61 0a be bb 3a ee bd 3f ca 68 3c ca 67 18 3e
       -0.13513638 -0.11632296 0.0142083755 0.14883342
000390 2a d8 0c 3e 80 00 b7 3d de 4b 42 3c 1f ec af bd
       0.13754335 0.08935642 0.011858908 -0.085899584
0003a0 c7 dc 24 be ab d4 b6 3d 16 47 4c 3d 8a 92 22 3d
       -0.16099845 0.08927282 0.04987248 0.03969053
0003b0 58 83 80 bd 3e 4b 3f be 85 93 5e 3c 88 ea 75 bd
       -0.06275052 -0.18681046 0.013584976 -0.06003812
0003c0 3d 98 47 bc fb 84 84 3c 25 0f ea bd 32 63 ba bd
       -0.0121822925 0.016176691 -0.1142867 -0.09100951
0003d0 3d c7 4e bd c7 50 81 3d c6 b5 f6 bd ac b0 06 3e
       -0.050482977 0.06314235 -0.12046389 0.13153332
0003e0 6f 76 28 be 15 b4 d2 bd 39 b2 5b 3d 88 a5 1b be
       -0.16451429 -0.10288254 0.053636763 -0.15199864
0003f0 81 f6 c9 bd 19 e4 da 3d e2 7d 0a be 88 9e 87 3d
       -0.0986147 0.106880374 -0.13524583 0.06622034

actor.0.bias f4 [128]
000000 7b 46 24 be 5e 15 1e 3c 6a 5a 77 3d bc 48 85 bd
       -0.16042511 0.009648649 0.06038896 -0.065080136
000010 38 2d ec bd 0b c6 07 3e 2d d3 39 3d f5 47 82 3d
       -0.11532062 0.13259141 0.04536741 0.06361381
000020 60 80 10 3e 66 70 0e be 1d 68 16 3e 15 db 74 bd
       0.14111471 -0.13910064 0.14688154 -0.059779245
000030 ef be 4b 3d a4 78 d1 3d ca 80 13 3e 9c b0 59 3d
       0.049742635 0.102280885 0.14404598 0.053146943
000040 0d 70 81 3c 4d 01 0c 3d 69 4f 56 bd b1 0c a3 3d
       0.0158005 0.034180928 -0.052321825 0.07961405
000050 e8 a6 26 3e 00 29 97 bc 62 6a 0a be e8 b9 9d bd
       0.16274607 -0.018452168 -0.13517144 -0.077014744
000060 e7 88 2f bc eb e8 13 3e d5 e4 00 be de fa 6f bd
       -0.010713792 0.1444432 -0.12587292 -0.058588855
000070 cf 66 8c bd 81 cb 0a be 69 3b 9f bd a5 d7 a3 3d
       -0.06855547 -0.13554193 -0.077750035 0.08000115
000080 26 e0 85 3d df 87 0b 3e da 65 71 bc ce 9c 65 3d
       0.065368935 0.1362605 -0.014733756 0.056057744
000090 70 ec 6b 3d 22 5e e5 3d 6f 9e c0 bb e0 ad 18 3e
       0.05759853 0.11199595 -0.0058782618 0.14910078
0000a0 7e b4 14 bc 6f 86 46 bd 46 b1 a0 3d d5 b7 6e 3d
       -0.009076236 -0.04846805 0.07846312 0.058280785
0000b0 74 d6 e9 bd 23 bd 8e bd 9f 89 39 be fe 40 06 3e
       -0.11417857 -0.06969669 -0.18118905 0.1311073
0000c0 fe f5 e5 3c a6 b4 12 3e 3d 8a 28 be 67 62 15 3e
       0.0280714 0.14326724 -0.16458984 0.14588319
0000d0 ce fc 48 3e 5c 4d 33 3e d7 98 ca bd e7 85 34 3e
       0.19627687 0.17509979 -0.09892433 0.17629205
0000e0 e9 0b 25 be 77 e1 16 be 5a 1e ae bd 76 26 4d 3e
       -0.16117825 -0.14734446 -0.08501883 0.20034203
0000f0 fd 54 65 bd ad d3 96 3d 72 3b 94 bc 66 94 b8 3d
       -0.055989254 0.07364593 -0.018094752 0.0901268
000100 47 de d3 3d 78 f1 2d 3e 8d b3 06 3e 28 90 08 3e
       0.103451304 0.16986644 0.1315443 0.13336241
000110 51 54 4d 3e 2c c9 6c 3d c6 db f2 3d 28 dc 2d 3e
       0.20051695 0.05780904 0.11858325 0.16978514
000120 78 45 be 3d d9 ab 47 bd 95 be 14 3e 5b 59 1f 3c
       0.09290594 -0.04874787 0.14525826 0.009725894
000130 67 bb b9 3d 0b f3 6e bd 13 c5 26 be fa 1e 10 be
       0.09068947 -0.058337253 -0.16286115 -0.14074317
000140 89 15 a5 bc fc 2d 0a be 3e e4 80 bd 77 5f 0a 3e
       -0.02015187 -0.13494104 -0.06293534 0.1351298
000150 4b c0 62 3d 9d 18 5f bd 19 09 09 bd 96 47 4f be
       0.055359166 -0.054466832 -0.03345594 -0.20242152
000160 aa c4 01 bd c2 c2 85 3a 90 09 22 be c7 7f 33 3e
       -0.031681694 0.0010205137 -0.1582396 0.17529212
000170 7f 3c f3 bd eb 64 3e 3c 44 8f 2f be 87 71 34 3d
       -0.11876773 0.01162074 -0.17144495 0.04405358
000180 a5 8c 1c be 40 b5 c6 bb 89 94 9f 3d 12 54 1d 3e
       -0.15288027 -0.006064087 0.07792003 0.15364102
000190 27 a1 16 bc 38 b8 f5 3c 3a 56 c0 3c a7 63 ef bd
       -0.009193695 0.029995069 0.023478616 -0.11688929
0001a0 54 9a 24 3d 74 71 20 be e6 a4 4a bd 54 de 98 bc
       0.04018624 -0.15668279 -0.049473666 -0.018660702
0001b0 6d 61 d3 bd 04 66 70 3d 66 58 25 be 1d a1 0e 3d
       -0.10321317 0.05869104 -0.16147003 0.03482162
0001c0 66 d0 90 bd e6 33 05 be d3 2e bf bc 1a 71 15 bd
       -0.07070999 -0.13008079 -0.023337757 -0.036484815
0001d0 a7 74 b8 bd 31 f4 28 3e 13 6e 86 bd 9d 19 34 bd
       -0.09006625 0.16499402 -0.06563964 -0.04396974
0001e0 b1 3d eb 3c bf 23 69 bd ff b1 36 3c 94 09 0a 3e
       0.02871594 -0.056918856 0.011150836 0.13480216
0001f0 01 a9 b3 39 ab 05 c1 bd f5 af c7 3d 27 22 62 3d
       0.00034267458 -0.09424909 0.09750358 0.05520835
